models/lstm/models/multi_time_series_model.pth (torch, 94976 bytes, 7 tensors)

machine_embedding.weight f4 [100, 8]
00000000: 883f 8840 9481 523f 903a 4040 822e 7040
00000010: 0fc2 30c0 d6d4 7e3f b86e 3ec0 b329 fb3f
00000020: 6305 ebbf 1be8 e0bf ea4a 063e a6ef 443f
00000030: 26cd f53e 1723 923f 09f1 7840 f3f7 48bf
00000040: 1802 0840 ac50 0fc0 ee0d e5c0 5367 8bc0
00000050: e110 623e df8e f83f e94f 9bc0 3692 d1c0
00000060: f3ad 393f 3a91 863f 0db2 7ac0 7391 bfbf
00000070: 938d 26bf 867f 013f 67b5 10c0 711e 9dc0
00000080: 3ce6 293f 92ed c13f 4b28 70c0 7111 ccbf
00000090: 7f89 8340 12e6 6ebf 153e 3ec0 435b 15c0
000000a0: d4e4 f73f 95b1 bb3f 2a03 2ac1 da56 94c0
000000b0: e8c3 95c0 5429 a740 666a a5c0 7b7a 23c1
000000c0: 999c 7d40 549e 833f 3c1f a5bf 4e41 0dc0
000000d0: 4246 a03d 97a5 233f 0de0 63be c103 aabd
000000e0: f7e6 4541 6e06 76c0 5c6d 22bf 474a 1b40
000000f0: 9198 8f40 dde6 a540 6b93 dec0 df40 2040
00000100: a3f8 3f41 7db4 85c0 210c 0a3e 12fe 1140
00000110: 8ee3 8640 0b20 b140 a487 d5c0 ccf7 5140
00000120: 4bd7 1740 569d 85be 7c48 ecbb 1dfe 8d3f
00000130: 3c5b b23f da36 dd3f 0b99 3ec0 2f7f c6be
00000140: 4933 1cbf 11da 21c0 57df 81bd d0a7 513f
00000150: 983b d33e 7176 f43f c3f8 1b3e 7aa1 8f3f
00000160: 41bf a540 d48c 5e40 5f48 3e40 7023 ad3f
00000170: ab26 903e 8d6f 0bbe 77a6 a1bf 2b12 d7be
00000180: c2ed 8040 c0dd cc3f d51a 5bc0 1b35 e93f
00000190: fdad 793f 038e 84bf 51ea abbe bf97 aebe
000001a0: 206e e7bf 1fa4 3940 d79a 9e40 29d7 29bf
000001b0: 2a07 a3be 5b6c 8ebf dcb6 50bf ceed 6b3f
000001c0: 0cc3 02c0 8c5c 0dc0 cb51 2f40 60a3 053f
000001d0: 9ea5 15bf 1ef1 4ec0 caf7 e63e d329 933f
000001e0: a502 2c41 1033 70c0 13e9 213f c593 3840
000001f0: e5c0 ae40 db8f a240 1542 bdc0 b158 0940
00000200: 4cc4 183f 5551 03bd f64d 4240 5b11 04bd
00000210: 802c b0be 9fb7 06c0 a9ed ddbf 16db 9bc0
00000220: 4710 783f b72b a03f 0d4f 5fc0 42a3 1cc0
00000230: 08cd 8bbe 59ed 12c0 459d 03c0 98db f8bf
00000240: 0bd5 b4bf 7181 6c3e 90f4 75bf 340c a0c0
00000250: 696f 3abf d0d8 5340 d1d1 6a3f 4ec3 bbc0
00000260: 5d9e e8bf fd2a 73c0 73b1 2dbf 608e 6e40
00000270: f12b ed3f 10c7 a6bf d430 e53f 655a 20c0
00000280: 75bc d5bc 93f4 8f40 8bf7 dabf 4119 fe3d
00000290: 55e6 d6bd e2bb a23f dc9f 5440 6425 7340
000002a0: 98f7 c23f d058 4cc0 6109 5540 a660 823f
000002b0: f6dc 9c3f 13dc b6bf ba4f 3cbf 51ed fabf
000002c0: ce91 4abe eefe ebbe f016 c8c0 ca0b 78c0
000002d0: 33ba 41c0 ceba 4b40 f3d9 17c0 3a63 f9c0
000002e0: 4e7d 15c0 30cd 9240 9972 f93f 7bee f03d
000002f0: edbd e33f b587 cdc0 2171 0640 3805 6b3f
00000300: 5315 0641 2616 2ec0 da71 82bf 45b0 7440
00000310: b7c1 2040 693f fd3e 8ac7 e2c0 69f3 3440
00000320: 0c1a ebbe e6be 5f40 eb09 dd3e 3fbd 80c0
00000330: 0e3b 2640 02bf 103f 27e2 56be 235a e7bf
00000340: d9da 6540 c65a a4bf 7bd3 a1bf ffc4 10c0
00000350: 691d 88c0 e159 6f40 10f4 fbbf 1cca 90c0
00000360: 2b09 44bf f433 42bf c5e7 c93f eb3f 3ec0
00000370: a1b4 2040 266c 3a40 9b74 1540 fcca 163f
00000380: c6d2 4241 a957 87c0 8de8 963e 4c84 1a40
00000390: 0e48 9740 5236 a340 667b e2c0 794c 4a40
000003a0: df27 ed3d 9fd9 893e a076 3c3d 7c0a 7fbf
000003b0: 7c14 bbc0 a279 8e3f 8307 4bbe 59e5 9abf
000003c0: fefd c53e 3c51 723f 66ec d63f 13a8 2bc0
000003d0: 3890 9b40 9daa 29c0 e079 d3c0 36b1 2ac0
000003e0: e8bb 0941 6ed6 0ec0 1512 a5bf e489 7c40
000003f0: 7d9c 4d40 d1f7 c33f 6af4 cec0 7065 0c40
4.2577553 0.8222897 3.0035744 3.7528386 -2.7618444 0.9954351 -2.9755077 1.96221
-1.8361019 -1.7570833 0.13114515 0.76928174 0.48008078 1.1416959 3.8897116 -0.7850334
2.1251278 -2.2392988 -7.1579504 -4.356363 0.22076751 1.9418601 -4.8535047 -6.549098
0.7253105 1.051307 -3.9171174 -1.4966263 -0.65059775 0.5058521 -2.261072 -4.909966
0.66366935 1.5150626 -3.7524593 -1.5942823 4.110534 -0.9331981 -2.9725392 -2.3336952
1.9366708 1.4663569 -10.625772 -4.635602 -4.6801643 5.223795 -5.169238 -10.217402
3.962683 1.0282693 -1.2900157 -2.207111 0.078259006 0.63924545 -0.22253437 -0.08301497
12.368888 -3.8441424 -0.6344812 2.4264085 4.487374 5.1844316 -6.9554954 2.5039594
11.998202 -4.1782823 0.1348119 2.2811322 4.2152777 5.5351615 -6.6728077 3.2807493
2.3725154 -0.260966 -0.0072107892 1.1093174 1.3934093 1.7282364 -2.978091 -0.38768908
-0.61015755 -2.5289347 -0.06341427 0.81896687 0.41256404 1.9098645 0.15231614 1.1221154
5.1795964 3.4773455 2.9731672 1.352644 0.281545 -0.13616772 -1.2628926 -0.4200605
4.029023 1.6005173 -3.4235127 1.8219332 0.9753111 -1.0355839 -0.33577207 -0.34100148
-1.8080482 2.9006422 4.9564013 -0.66343933 -0.31841403 -1.1126817 -0.8152902 0.92159736
-2.0431547 -2.2087736 2.7393672 0.52202415 -0.58455837 -3.2334666 0.45110923 1.1497139
10.750646 -3.7531166 0.6324627 2.8840191 5.4610467 5.0800605 -5.9143167 2.1460383
0.59674525 -0.032059986 3.0360084 -0.032243114 -0.3440895 -2.1049573 -1.7338153 -4.870494
0.9689984 1.2513341 -3.4891999 -2.4474645 -0.27304864 -2.2957366 -2.056474 -1.9442015
-1.4127516 0.23096253 -0.960763 -5.0014896 -0.7282625 3.3101082 0.91726404 -5.867591
-1.8173329 -3.7994988 -0.6784889 3.7274399 1.8529035 -1.3029499 1.7905526 -2.5055172
-0.02609084 4.4986053 -1.7106794 0.124071606 -0.10493151 1.2713587 3.322257 3.7991571
1.523181 -3.1929207 3.3286974 1.0185745 1.2254932 -1.4285911 -0.73559153 -1.9603673
-0.19782183 -0.46092933 -6.2528 -3.8757195 -3.0269897 3.1832767 -2.3726776 -7.7933626
-2.335773 4.5875473 1.9488097 0.117642365 1.7792336 -6.422816 2.1006548 0.9180484
8.380206 -2.7201018 -1.0190995 3.8232586 2.5118234 0.4946244 -7.086858 2.8273566
-0.4591831 3.4960265 0.4317163 -4.0231013 2.5973544 0.56541455 -0.20984708 -1.8074383
3.5914824 -1.2840202 -1.2642664 -2.2620237 -4.25359 3.7398608 -1.9683857 -4.5246716
-0.7657649 -0.75860524 1.5773855 -2.9726512 2.5110247 2.9128509 2.335242 0.5890348
12.176458 -4.2294507 0.29474297 2.4143248 4.7275457 5.100381 -7.0775633 3.1609175
0.115798704 0.26923844 0.046011567 -0.9962537 -5.8462505 1.1130869 -0.19827084 -1.2101241
0.38670343 0.94655204 1.6790893 -2.6821334 4.861355 -2.6510384 -6.6086273 -2.667066
8.608376 -2.2318377 -1.2896143 3.9459162 3.2126763 1.5310003 -6.4673357 2.1936913

event_embedding.weight f4 [4, 2]
00000000: e628 cd3f 7e05 75bf fa1a 5d3f d494 ab3f
00000010: 1ebe 76bf d915 c33f 9089 81c0 2a68 9440
1.6028106 -0.95711505 0.8636929 1.3404794 -0.96383846 1.5241042 -4.0480423 4.6377153

lstm.weight_ih_l0 f4 [256, 20]
00000000: dc27 33bd ef32 9b3e 7ad1 773f 5b2f 5ebc
00000010: c534 fd3f e5df dcbf f017 20c0 341c 9fbe
00000020: 1b3f 80bd 593d 983f 78a2 e8be e1ed 6f3d
00000030: 96a1 8dbf e0fd 343e dedd aa3e a7be 463f
00000040: bccb 53bf cc0f 69bd aea1 7e3f b826 bfbf
00000050: e6a2 63bf 9e78 5dbd 6990 88bf bd73 b8bc
00000060: 28c0 d1bf d755 0bbf d21e 1740 ec1c b5bf
00000070: 3fa0 513f 182c c93f f636 fc3d e78a 143e
00000080: 2b88 503f dddc 55be 6535 5e3e fb98 24bf
00000090: b74f 833d f98c a0bd f3a5 62bf d143 fcbe
000000a0: 2803 9f40 772f 74bf 61eb 9740 493d 5bbf
000000b0: 5d62 8540 2390 09bf 6881 4bbf 4e29 cbbe
000000c0: 8602 d6bf 20b3 be40 2c06 793e 3837 883f
000000d0: 249a 0cbd b771 a7be b681 3abd 7628 4c3d
000000e0: a7be cebe b203 093f 18ab 4f3f 25bc 4cbf
000000f0: 261c 0d3f d643 e7be 815a f7be 654f 0abf
00000100: 7949 1640 1f0e a2be a048 4d3f e6b1 c93f
00000110: 2ac1 09be c72b 8a40 769a 2cbe 10e0 53bf
00000120: b2f6 f8bd 40ad 1bbf 4f9f c9be 2076 eebe
00000130: f381 053e 3c4b 043f 0237 3f3f a269 94bf
00000140: 5e3d ec3f 3e23 513f a6a8 d53f f86f 633f
00000150: 097c 1040 e17a 94be e68e 573f 29cd 0640
00000160: 997e 943f 0dbf b7bf 9f35 b4be edb6 1d3d
00000170: f59f 4f3e 5ecb 513e 2762 8dbe a21e a7bc
00000180: 3fe3 13bf 6ef8 41bc c58b 593f e469 27bf
00000190: a6d3 13bf 6277 703f 9da8 423d 0cd3 883f
000001a0: fb38 663f c0b1 ccbf 0b7b 3e40 5f28 0bc0
000001b0: 6c9f 2e3f ba7b 0c3f 64f5 433e 78a6 66be
000001c0: 290e bfbe b678 4ebf 137a 4b3d faab 71be
000001d0: 7839 78be 9198 06be 8870 ce3e d21f eebe
000001e0: f736 b940 95cc 8f3f 6bb4 9840 b359 bc3f
000001f0: 44c0 8e40 b1a2 cd3f 6432 d93f 36a9 8740
00000200: c5fd 4b40 59a9 6b40 e7fc 26be 8738 d43d
00000210: 2d57 a2be 0839 49bf 15a9 c23e 8a35 853e
00000220: 61c6 aabd 0027 b13e f389 c03b 890b 4f3f
00000230: fdce 3c40 c0f9 9c3e 6ef1 3240 7958 383f
00000240: 49cd 4b40 a304 023e 93ff 2f3f 5956 563f
00000250: 9e8a 103e 5ee3 b140 d940 953d e853 083f
00000260: 517e b63e 26e6 70bd c7de 843e 35e3 78bf
00000270: 2746 13bd 325b 273f 76cd 7ebf f307 16bf
00000280: 115a 913f d071 0b3f 15df 2040 c793 0b3f
00000290: 127b 9a3f 44cb f03c c424 c73f 6de7 673f
000002a0: 01b6 af3e 1f78 03bf 4ef0 db3e 9129 a9be
000002b0: 394b f2be e4d9 b1be b9ea 023e 1aec e53d
000002c0: 92c0 a2be fa73 10bf 69e8 ab3e 7c6a 65bf
000002d0: a6b3 1dbe ef87 69c0 41cc 06c0 3fbf 4dc0
000002e0: c2d7 2140 8b6f 8fc0 05bf 3640 4640 53c0
000002f0: 0945 85c0 966a b23e bbde c13d d592 1b3f
00000300: 6a1f a9bd f5dc 853e 2f69 89be e836 87bc
00000310: f36b 353e 3838 5bbe b6f8 163f ecf3 dabe
00000320: 3b07 4140 404c 7640 f06f e53f c049 5340
00000330: 3300 8d40 1f39 9e40 93c0 ed3f a152 733f
00000340: 363d 0e40 6b41 813c 0fae a6bc 8623 90be
00000350: 4d6b 843e a011 a7bf 9281 23be e52f 873f
00000360: 3470 383f f979 80be 9ee5 f43e 6486 be3e
00000370: e06f 8d40 2621 44bf ba1a 9640 cb23 26bf
00000380: dda6 ee40 b24e 3fbe b50b f13f 1864 5a40
00000390: 7bcf d6bf 2cd2 0fc0 5cb2 cd3e 56f2 ecbe
000003a0: e75e 64be c6bf 39be f4db b4bc 9f4f 97be
000003b0: b1dd 183f 26a1 6cbe d686 ba3f 55fe 22bf
000003c0: a13e 0c40 0e6a 883f 0371 8c40 0727 263f
000003d0: d1e1 473f c09c ad3f cb56 97bf b6f0 713f
000003e0: 762c 693f e7f3 5440 f71e c0bd 1841 5abf
000003f0: 0103 383e d00f 4bbe 0260 1f3f 0bd8 a13f
-0.043739185 0.30312297 0.9680401 -0.013561095 1.9781729 -1.7255827 -2.501461 -0.31076205
-0.062620364 1.1893722 -0.45436454 0.05857647 -1.1064937 0.1767497 0.33372396 0.7763466
-0.8273275 -0.05689983 0.99465454 -1.4933691 -0.8892044 -0.054070108 -1.066907 -0.022516126
-1.6386766 -0.54427856 2.3612561 -1.4149451 0.8188514 1.5716581 0.123151705 0.14506112
0.81457776 -0.20885034 0.21700056 -0.6429593 0.06411689 -0.078393884 -0.8853447 -0.4927049
4.9691353 -0.95384926 4.747483 -0.8564039 4.168257 -0.5373556 -0.79494333 -0.3967995
-1.671952 5.959366 0.2431876 1.0641851 -0.034326687 -0.32703945 -0.04553386 0.049843274
-0.4037983 0.53521264 0.81120443 -0.79974586 0.55121076 -0.45168942 -0.48311237 -0.54027396
2.3482344 -0.316514 0.8018894 1.5757415 -0.13452592 4.317844 -0.16855797 -0.8276377
-0.121564284 -0.60811234 -0.39379355 -0.46574497 0.13037853 0.516773 0.7469331 -1.1594737
1.8456228 0.816944 1.6692092 0.88842726 2.2575705 -0.29 0.8420242 2.106272
1.1601135 -1.4355179 -0.3519716 0.03850453 0.20275863 0.20487735 -0.27613947 -0.020400349
-0.57768625 -0.011839015 0.84978896 -0.6539595 -0.57744825 0.93932164 0.047524083 1.0689406
0.89930695 -1.5991745 2.97626 -2.174339 0.6821201 0.5487629 0.19136578 -0.2252444
-0.3731549 -0.8065294 0.049676966 -0.2360076 -0.24240673 -0.13144137 0.4032023 -0.46508652
5.7879596 1.1234308 4.7720237 1.4714874 4.46097 1.6065274 1.6968503 4.2394056
3.1873639 3.6822112 -0.16307412 0.10362344 -0.31707135 -0.7860265 0.38019624 0.2601741
-0.08338619 0.34600067 0.00587582 0.80876976 2.9501336 0.30659294 2.7959857 0.7201
3.1844046 0.12697081 0.6874935 0.83725506 0.14115378 5.559005 0.07287759 0.5325303
0.35643247 -0.058813237 0.25951216 -0.9722169 -0.035955574 0.6537353 -0.9953226 -0.5860588
1.1355611 0.5447054 2.5136158 0.54522365 1.2068808 0.0293938 1.5558095 0.905875
0.34318545 -0.51355165 0.42956775 -0.33039525 -0.47323015 -0.3473655 0.12784852 0.112266734
-0.31787544 -0.56426966 0.33575752 -0.8961561 -0.15400562 -3.6489217 -2.1062167 -3.2147977
2.5287938 -4.482366 2.855409 -3.300798 -4.164677 0.34846944 0.094663106 0.6077092
-0.08257945 0.2614514 -0.2683806 -0.016505674 0.1771696 -0.21408165 0.5897325 -0.42764223
3.0160663 3.848404 1.7924786 3.3013763 4.4062743 4.944473 1.8574394 0.95047957
2.222486 0.015778264 -0.02034667 -0.28152102 0.25863114 -1.3052254 -0.15967396 1.0561491
0.7204621 -0.25093058 0.47831434 0.37211907 4.4199066 -0.7661308 4.6907625 -0.64898366
7.457869 -0.18682364 1.8831698 3.4123592 -1.6782068 -2.2472029 0.4017514 -0.46278638
-0.22301827 -0.18139562 -0.022077538 -0.29552934 0.59713274 -0.23108348 1.4572399 -0.6366933
2.1913226 1.0657365 4.3887954 0.649033 0.78078943 1.3563461 -1.1823362 0.9450792
0.91083467 3.3273866 -0.09380906 -0.85255575 0.17969896 -0.1983025 0.6225587 1.2644056

lstm.weight_hh_l0 f4 [256, 64]
00000000: ed51 38bf 8698 3abf fa35 263f a7a2 283f
00000010: 66e8 2340 a6ae 843f eb40 313c 0863 3abf
00000020: 450d 2440 c343 78be 185e 653e 45f8 88be
00000030: 5e1d 163f ac58 a1bf b68b 9c3f f00e fe3e
00000040: ce97 34be 15f3 e63e db83 813f 55d9 de3e
00000050: 18f4 80be b7ab c63e 4ebb 833f ca1e 263f
00000060: 61b9 55bf 9685 883e 9978 43be 3f3c 15bf
00000070: 1fea 4d3f 6ca0 e93e 3c25 03bf 4be3 09bf
00000080: 82b3 043f 44bd 403e 5963 bebf 6d43 2bbf
00000090: 5302 da3e 28a2 27be 078a b6bf ec3f 8abe
000000a0: a08e c9bf 3a0c ea3e 2ea1 743f 9f0f 373e
000000b0: 75b9 7bbf 2bdc 82bf 5528 38bf 41c7 c63f
000000c0: ef57 9cbf c988 45be 1cf9 d2be 1517 2a3d
000000d0: 6e3c 84bf 819d 4cbf 8a7c 853f 7121 e63f
000000e0: 92b8 25bf bec4 403f 7d59 9d3f 18d0 9abf
000000f0: 1fd4 ed3f bee5 ac3d 49fc 0ebf eb38 91bf
00000100: 23b6 14be b8e2 1a3f ad87 9f3e a4ce 85be
00000110: 3936 36bf 6c96 083e cdbf 6bbf 1685 e3bf
00000120: a3b6 a53f 902c 933e ae5d 95bf 0b91 e8bd
00000130: 1a67 f0bf 580f d5be ed3d b2be d940 a63f
00000140: 8b8e fd3e bfa9 113f ab0d cb3c cbcf 78bf
00000150: 6910 88be 882a 9b3f 85f7 46bf 7cc3 763e
00000160: 7259 88bf b572 85be 8ce6 f73e 8324 80be
00000170: 522c 093f b84c 9c3f 4428 24bf eef8 963f
00000180: 82cd 183f b0dd f7bf 050e 853f 0c5a 813f
00000190: 7fc1 073d 4cdb 52bf 6476 163f 3668 19bf
000001a0: 83af 1dbf 0253 fa3d aa22 17bf cc5c 6d3f
000001b0: 3b56 25bf 48fd b3bd 3f88 afbf cd94 bc3e
000001c0: a493 0a3f 777d 0a3f 58df 0840 54ef e53e
000001d0: d2ec e43f 2a9e 04be 0d35 c7bd ccfc 4bbe
000001e0: 9160 2b3f b1f0 823f a8d7 83bf 6fe5 43bf
000001f0: ff7d bc3e 1400 ce3f 99fc babe 4fb7 a6bd
00000200: 5431 80bc 54a2 d9bf 8e0a dc3e 00bf e13f
00000210: 899d 9dbc 11d9 fd3e b04f 7dbf 2a0c 18be
00000220: 6890 1cbe 1c69 0abf 211c 183f e99c 6ebe
00000230: ba21 4ebf f8e4 3ebf 2bf0 b73f 253d 443e
00000240: 8c6a eabe 6fb2 983f dee7 8cbf af20 0040
00000250: 8c7f a53e 8c66 dc3e 8b9b 34bf 2e76 3dbf
00000260: e9e1 7cbf 9cc1 273f ba4b 273f 93b5 9ebf
00000270: 72c8 b3be ac74 513f f83d 50bf 71d4 3b3f
00000280: 4c5c cfbe 6a16 f03f daaa af3f 1391 8a3f
00000290: 4a4c 793e 6055 c2bf dc50 27be 3baf ed3f
000002a0: 2909 a9bf 24bd 2a3f d71a 42bd 72d9 503f
000002b0: a364 75be 9d61 4ebe 4735 26bf 9a50 d4bf
000002c0: fae0 de3e 79fe 8a3f 1459 0e3f 6b2e db3e
000002d0: 959d aa3f 816f ed3e d132 b8be 462a 083f
000002e0: d1f6 803e 5526 fd3f 8d80 dfbf 69e0 3abf
000002f0: 4dbe 82be 8520 0840 e82e 46bf 58d6 38be
00000300: 910e 20bf a467 d13f 1994 af3f c7ad c73e
00000310: 6697 e4bd 2013 843f 9bc8 60bf 39c4 89bf
00000320: 4f03 113f fcb7 8dbe 1397 b23d 8097 8bbd
00000330: 05d8 923b 4636 d5bd b3fc 473f 8fcf b73e
00000340: fa7d c1bf dfb4 ea3e 7150 913e 56a8 fbbd
00000350: 52f3 243f 158b 643f 9cfd ae3e e6f2 d2bd
00000360: b63a a4bf 6a39 51be a8cf fbbe b368 f5be
00000370: 5cc9 31bf 93de 1e3f 6506 82bf f892 f53e
00000380: 291e 553f 1fff 533e 5d97 0c3f 74c3 10bf
00000390: 677b 5bbf a4b5 cebe a41c 6fbf cb98 2cbc
000003a0: b5bf 13bf 05ef 403f e4da 903f d48b 89be
000003b0: 4c73 fdbe b30a 1640 fe86 2d3e 5381 a2bf
000003c0: 1671 a7bf a684 023f f2b1 ac3f c32a 0dbd
000003d0: 4e95 fcbf cdf6 e33f a365 b7bf 1201 debf
000003e0: 7ad7 5b3f 4bf7 f03e 6407 d43e 0e4a 26bf
000003f0: 32eb 853f 3a2f 2d3f 0e0c 403f cca4 813f
-0.7200001 -0.7288898 0.6492611 0.6587319 2.5610595 1.0365798 0.0108187 -0.7280736
2.56331 -0.24244599 0.22399175 -0.26751915 0.5863856 -1.2605186 1.2230136 0.4962077
-0.17636034 0.45107332 1.0118364 0.43525186 -0.2518623 0.38802883 1.0291536 0.6489073
-0.8348599 0.26664418 -0.19088973 -0.58295053 0.80435365 0.45630205 -0.5122869 -0.53862447
0.5183641 0.18822199 -1.4874068 -0.6689976 0.42579898 -0.16370451 -1.4260873 -0.27001894
-1.5746651 0.45712453 0.9555844 0.17877053 -0.9832986 -1.022344 -0.7193654 1.5529557
-1.2214335 -0.1929046 -0.4120568 0.04152592 -1.0330942 -0.7992783 1.0428631 1.7978956
-0.64734757 0.75300205 1.2292935 -1.2094755 1.8580359 0.08442257 -0.55853707 -1.1345495
-0.14522605 0.60502195 0.311582 -0.26134217 -0.7117649 0.13338631 -0.9208954 -1.777499
1.2946361 0.28744936 -1.1669214 -0.1135579 -1.8781464 -0.4161327 -0.3481287 1.298854
0.49522814 0.56899637 0.02478679 -0.97192067 -0.2657502 1.2122355 -0.77721435 0.24098009
-1.0652297 -0.26064077 0.4841808 -0.25027856 0.5358325 1.2210913 -0.6412394 1.1794717
0.5968858 -1.9364529 1.0394903 1.0105605 0.033143517 -0.8236587 0.587744 -0.5992464
-0.61595935 0.12222864 -0.5903727 0.9271972 -0.645847 -0.08788544 -1.3713454 0.36832276
0.5413153 0.54097694 2.1386318 0.44909155 1.7884772 -0.1295096 -0.097269155 -0.19920653
0.66944224 1.0229703 -1.0300188 -0.7652196 0.36814877 1.6093774 -0.36520842 -0.08140432
-0.015648521 -1.7002664 0.42976803 1.7636414 -0.019240158 0.4957967 -0.9894972 -0.1484839
-0.15289462 -0.54066634 0.5941792 -0.23302044 -0.8052021 -0.7456813 1.4370168 0.1916395
-0.45784414 1.1929454 -1.100826 2.0019948 0.32323873 0.43046987 -0.7054984 -0.7400845
-0.9878221 0.655298 0.65349925 -1.2399162 -0.35113865 0.8181865 -0.81344557 0.73371035
-0.40500104 1.875684 1.3724015 1.0825523 0.24345508 -1.5182304 -0.16339439 1.8569101
-1.320592 0.66694856 -0.047388878 0.81581795 -0.23964171 -0.20154424 -0.64925045 -1.6587098
0.43531018 1.0858909 0.5560467 0.42808852 1.332934 0.46374133 -0.3597627 0.53189504
0.25188306 1.9777323 -1.7461106 -0.7299867 -0.25535813 2.1269848 -0.77415323 -0.18050516
-0.62522227 1.6359754 1.3717071 0.3899977 -0.111616895 1.0318336 -0.878061 -1.0763007
0.56645674 -0.2767943 0.08720221 -0.06816006 0.004481318 -0.104107425 0.78119963 0.35900542
-1.511657 0.4584112 0.28381684 -0.12287967 0.6443378 0.8927472 0.34177864 -0.103002355
-1.2830417 -0.20432058 -0.49181867 -0.47931442 -0.69447875 0.6205837 -1.0158201 0.4796369
0.83249146 0.2070279 0.5491846 -0.5654824 -0.8573517 -0.40372956 -0.9340308 -0.010534476
-0.57714397 0.75364715 1.13168 -0.26864493 -0.49502027 2.344403 0.16946027 -1.2695717
-1.3081386 0.50983655 1.3491805 -0.03446461 -1.9733064 1.7809693 -1.4327892 -1.7344077
0.85875666 0.4706367 0.4141189 -0.6495675 1.0462401 0.67650187 0.75018394 1.0128417

lstm.bias_ih_l0 f4 [256]
00000000: fab1 10bf 3f31 31bf d0a1 b6be c83b 5dbf
00000010: 9e56 6bbe 4c28 3ebf 2ee5 e83e 1860 babf
00000020: d4c7 bfbf ab8e 56bf b9fc 4e3e 8451 e2be
00000030: ceea 7fbe 30f2 afbf baa2 9bbf 0fee cabe
00000040: cc69 02c0 9420 d8bd 3c2f 80bf 17fa 1cc0
00000050: 20fd 5fbf a418 513e 6768 ac3e 2006 6bbb
00000060: 29fe bdbe 60f2 b1be ba87 94bf 502a b8bf
00000070: f974 1ebf 2baf bfbf 4066 10bf 8929 68be
00000080: 8156 5cbf b5af 89bd 521f 0abf dd18 b0bf
00000090: 23c6 2abf d9f3 9cbf b810 ccbf daec 94bf
000000a0: d71d 1dc0 dd8c 6f3d 9faa b23e f609 eebe
000000b0: 1762 a3bf 3f7f 0ac0 185b 433f c04c b2bf
000000c0: e529 babe 77db 09bf bbb6 1c3f abce abbf
000000d0: 06f4 63bd eb97 d83e 8114 ce3f 38b5 54bf
000000e0: cbbf edbf d941 3e3f 8325 c4be 98a9 fbbe
000000f0: d1e6 7dbf 1cd2 1dbf ba33 ea3f 54dd 6ebf
00000100: 38ea bb3b 2a52 69bd d035 743d b772 2a3f
00000110: afc3 98bd 74b6 29bd 4bbe 83bf 0800 6bbf
00000120: 0c51 fe3e 386b 093e af92 6abf 60f1 5e3e
00000130: 69be febe 3a0e 8fbf 5c54 7ebf 8d68 e0bf
00000140: f151 5fbf 50b1 073e 63ca 01bf cb6c cdbf
00000150: 064b cabe 95bc e3be d58b 06bf cc92 533e
00000160: c9e2 0cbf aacd 5bbe 1bfc 013e d530 fdbd
00000170: bc75 0dbe 72c6 5dbf 6ec3 06bf f740 673d
00000180: 0522 2dbf e8a9 b8bc b0ca e83e e316 24bf
00000190: 3e81 b8bf 0f88 633d 15f5 ad3e 4a54 06bf
000001a0: 5bca 3fbf eb97 7fbf f2b3 46bf 3d36 3ebf
000001b0: 5aa8 5cbf 2b78 7dbf 3a47 4ebe 66b0 78bf
000001c0: 57e2 c73e 4039 8bbf 0ee4 c3bd 04cc a7bf
000001d0: b7ae 51be 53d0 11bf 82f3 f4bd 21d3 593e
000001e0: 50b2 83bf 95de 44bf c9dc 00bd 24d4 8cbf
000001f0: ed03 bcbe a748 14bf 6e97 84bf 8f7d a3be
00000200: 93b1 04bf fc16 9dbf 9300 ddbf 523c d33e
00000210: 2ba1 d03d 312e 2b3f 279d 143f 815b cabc
00000220: 5128 d73e 6856 5bbf 2ace be3d 6b75 4abf
00000230: 7312 ca3e 7ce7 0ec0 6e7a e1be f80f 1cbf
00000240: f394 5b3f 0586 54bf 3a96 58bf e3b6 883d
00000250: 5048 413f f1ee aebc e279 3d3f 630d c73f
00000260: 771c 9c3e 3f56 b3bf 9da2 a0be ec7b 2c3f
00000270: cc7f 843f eacd 343f 6c89 15c0 039f 7ebf
00000280: e525 5c3e 424c 0140 dfbd 053f 5204 883e
00000290: a816 1dbf b62e 11bf 2ef9 9ebf a14f 7a3f
000002a0: ec1d d8bf 9227 8fbe 0752 cabe bae6 663f
000002b0: 61ce debc a28a 62bf b274 243f 1e79 5b3f
000002c0: 04bf f33f 1565 a5bf a464 9b3d 3c83 023e
000002d0: 56c5 dc3d f159 863d b454 dfbd 3990 77bf
000002e0: ae67 55bf 89e2 34bf 089f 5dbf 4426 343f
000002f0: 2166 a4bf 42fa 85bd 6006 0fbe 989f 033f
00000300: b559 66bf f322 a3bf 5c83 05bf 1414 c53d
00000310: f314 93bf 4656 92bf 533a 4e3f 130e a4bf
00000320: 13ce bbbf 43f4 bdbe c33f 313f 2f47 913e
00000330: 9ecf 0e3d bc09 25c0 c19c c1bf 90ed 85bf
00000340: c9d5 c8bf 6250 983e f06e 96bf 2199 11c0
00000350: c3fe b6bf 0dbc 2c3e bd33 b53e 9443 ea3e
00000360: d489 e8bd 5736 abbf dd41 03c0 6166 69bf
00000370: d2f9 d5bf 82aa 16c0 0058 89bf d64c c9bd
00000380: 5977 91bf d14a 49bf f92e 4ebe 44fd 80bf
00000390: 46d8 f53d 0108 e4bf aaa1 5fbf 8c25 86bf
000003a0: 66f7 32c0 877a 41be 387c 223f 3251 6c3e
000003b0: 5571 4bbf ed32 c8bf 3c08 bd3f f2b1 7abf
000003c0: 355b febe 7e80 80bf 44a4 353f 5acb 9ebf
000003d0: 7a04 ed3d 1b70 f73e 7f08 a43f 10ae 95bf
000003e0: 80cc febf 39d0 123f 90e2 43bf 7bfa 0dbc
000003f0: 8843 bcbf 755a 04be d248 0140 3eab 65bf
-0.5652157 -0.6921577 -0.35670328 -0.86419344 -0.2298226 -0.7428024 0.4548735 -1.4560575
-1.4982858 -0.83811444 0.20213594 -0.44202816 -0.24991915 -1.3745785 -1.2159035 -0.3963475
-2.0377073 -0.10553089 -1.0014415 -2.4527643 -0.87495613 0.20419556 0.33673403 -0.0035861805
-0.3710797 -0.3475523 -1.160392 -1.4387913 -0.61897236 -1.4975332 -0.5640602 -0.22672094
-0.86069494 -0.067229666 -0.5395404 -1.3757588 -0.6670858 -1.2261916 -1.5942602 -1.1634781
-2.4549463 0.058483947 0.348958 -0.46491975 -1.276431 -2.1640165 0.76310873 -1.3929672
-0.36360088 -0.538505 0.61216325 -1.3422445 -0.05565264 0.42303404 1.6100007 -0.8308902
-1.8574156 0.74319226 -0.3830987 -0.49152827 -0.9918032 -0.61648726 1.8297036 -0.9330647
0.005734708 -0.056963123 0.059621632 0.6658129 -0.07459199 -0.041433766 -1.0292448 -0.9179692
0.4967121 0.13419807 -0.9163007 0.21771765 -0.49754646 -1.1176217 -0.9934747 -1.7531906
-0.8723441 0.13251233 -0.5069944 -1.6048826 -0.39510363 -0.44479814 -0.52557117 0.20661467
-0.55033547 -0.21465173 0.12693827 -0.123628296 -0.13814443 -0.8663093 -0.5264195 0.05645844
-0.67630035 -0.022541955 0.45467138 -0.6409742 -1.4414442 0.055549677 0.33976045 -0.52472365
-0.74918145 -0.99841183 -0.77618325 -0.7430151 -0.86194384 -0.99011487 -0.20144358 -0.9714416
0.3903987 -1.0876846 -0.09564982 -1.3109136 -0.20476805 -0.569585 -0.11960508 0.21271946
-1.0288792 -0.76902133 -0.031460557 -1.100224 -0.36721745 -0.5792336 -1.0358713 -0.3193173
-0.51833457 -1.2272639 -1.72658 0.41256958 0.1018699 0.6686736 0.58052295 -0.024701836
0.42022946 -0.8567872 0.093166664 -0.79085416 0.394672 -2.2328787 -0.4403872 -0.60961866
0.85774153 -0.83017 -0.8460423 0.06675508 0.75500965 -0.02135417 0.74014103 1.555096
0.30490467 -1.4010695 -0.31374064 0.6737659 1.03515 0.706267 -2.3365126 -0.9946138
0.2149883 2.0202794 0.52242845 0.26565796 -0.61362696 -0.567119 -1.2419794 0.97777754
-1.6884131 -0.27959877 -0.39515707 0.9019581 -0.027198019 -0.88492787 0.6424056 0.85731685
1.9042668 -1.2921473 0.07587555 0.12745374 0.10779826 0.06560124 -0.10904828 -0.9670444
-0.8336133 -0.70658165 -0.8657079 0.7037089 -1.2843667 -0.065418735 -0.13967276 0.51415396
-0.8998063 -1.2745041 -0.52153563 0.0962297 -1.1490768 -1.1432579 0.80557746 -1.2816795
-1.4672264 -0.3710042 0.6923792 0.2837462 0.034865968 -2.5787191 -1.5125962 -1.0463123
-1.5690242 0.29748827 -1.1752605 -2.2749712 -1.4296497 0.1686861 0.35391036 0.45754683
-0.11354414 -1.3375958 -2.050895 -0.9117184 -1.6716864 -2.354157 -1.072998 -0.098291084
-1.1364547 -0.78629786 -0.20135106 -1.007729 0.120041415 -1.7814943 -0.87356055 -1.0480208
-2.79635 -0.18894397 0.6347079 0.23077849 -0.79469806 -1.5640541 1.4768138 -0.97927773
-0.4967896 -1.0039213 0.70953774 -1.2405808 0.115731195 0.48327717 1.2815093 -1.1693745
-1.9906158 0.5734897 -0.7651758 -0.008665676 -1.4708109 -0.12925132 2.0200696 -0.8971442

lstm.bias_hh_l0 f4 [256]
00000000: d487 28bf 0381 66bf a429 ecbe ae22 64bf
00000010: 8245 11be 55f3 0abf 7da4 083f ed57 acbf
00000020: a706 c8bf 1819 5bbf 38c5 933e 3ecc e0be
00000030: 344e 81be 72a8 99bf 0248 aabf 5117 12bf
00000040: d863 ffbf ac84 37bd b510 88bf ad33 17c0
00000050: 5411 7abf 13a2 dd3d beb2 c93e 426f 0b3d
00000060: 7f1a bcbe 96b7 63be 620b 9fbf 78c3 aebf
00000070: e595 16bf df8f adbf 35ce 3cbf 71b8 06be
00000080: 4222 7bbf 48f8 f6bd d740 22bf db80 acbf
00000090: af7b 19bf 8ac9 96bf 8b2e bebf aae7 9ebf
000000a0: 573b 1bc0 8856 803d 326e d43e ef7b e8be
000000b0: 0183 aebf 4fc2 06c0 d00c 2a3f ac3b cfbf
000000c0: a927 12bf addb 09bf af56 2b3f d43b b3bf
000000d0: 50f0 73bc 9f4e 8f3e 3c72 bb3f ab90 4ebf
000000e0: 4374 d3bf 91da 513f a8d9 b4be ee33 c7be
000000f0: 2260 70bf 7266 3bbf 628d e63f 31b3 81bf
00000100: ae79 023e 8645 efbc 65ff 383e c49d 0f3f
00000110: ff54 26be 1b3a fb3d 1b55 84bf 10bb 36bf
00000120: 2e75 bd3e f9fb a43e 0e8d 86bf d422 473e
00000130: c5f2 f8be eff6 8abf 9612 71bf 0803 c6bf
00000140: 8e0b 68bf 2508 7b3c ff29 1ebf 0dba cfbf
00000150: 9168 93be aec4 a7be 7409 0cbf a5cf e33e
00000160: 6548 f1be 91bb afbe 98ec 2e3e b322 91bd
00000170: 4110 17bd a1e8 68bf 574e d7be 2e38 a63d
00000180: c959 3fbf 6406 3c3d 7ea0 133f 431c 07bf
00000190: a2ee acbf 5c07 543c c136 643e 7ad5 35bf
000001a0: 2df0 40bf 52de 6dbf 5537 3dbf 07c2 22bf
000001b0: bb16 52bf c816 85bf a398 3cbe 5cf4 73bf
000001c0: 500c b33e c7e8 93bf 4c83 0ebe 755a b0bf
000001d0: 8965 75be 98c9 36bf 09db 50be 9113 663e
000001e0: d5dd 84bf ba6d 43bf 9b61 aebc 5d27 92bf
000001f0: 89a7 ecbe ba8e 02bf f08d 97bf c128 b9be
00000200: 378c 0dbf 1bb5 a9bf 41c5 f7bf d418 e73e
00000210: 3fbc a7bd 05df 4a3f 6adb dc3e cac1 8ebd
00000220: 3c06 b33e 19b4 61bf e3f8 603d 7723 4abf
00000230: 9281 b93e 3a70 12c0 2673 6abe 3976 fcbe
00000240: 2abf 463f 4d6e 66bf b923 64bf d3c4 603c
00000250: 777b 653f 0202 94bc 53eb 413f fdf4 c53f
00000260: 128f a93e 614b bfbf c15f a0be ecca 543f
00000270: 6fb9 773f 3b5d 273f ff3e 16c0 7c16 8abf
00000280: f88f 743e e554 f83f e5f1 073f 2ac4 f43d
00000290: 4a70 15bf bcab d3be 7445 a0bf d9c6 5b3f
000002a0: f23d cbbf eed7 cfbe 6a65 13bf de98 813f
000002b0: edb6 95bd bb61 60bf 30f4 103f fc4b 363f
000002c0: 059d ee3f 06ea a2bf 0b47 6e3d 13d5 583e
000002d0: c39c b83c 7922 fa3c 33cc 883c 0dd6 72bf
000002e0: d7c4 62bf a658 3fbf c8e9 70bf a9cd 5a3f
000002f0: 6d74 a6bf 3156 8abb a333 4abe 8c95 cb3e
00000300: 2682 4cbf fa3a b7bf 0e56 3dbf fbcc f93d
00000310: 9910 94bf 4723 aabf bb41 293f a641 92bf
00000320: 5c73 c2bf dce2 d5be 8f57 563f 4b74 2c3e
00000330: 3257 d63d a8ea 29c0 b768 c1bf 9066 8cbf
00000340: c36b d8bf 7a9c b43e 4160 99bf d90f 0fc0
00000350: ff3d c7bf 2f7b 543e 35c9 b43e 6c1f 053f
00000360: 59c3 68bd d4b8 9ebf de4b f6bf b8de 82bf
00000370: 7d21 bfbf b206 1ac0 f220 97bf 2cfb 35bd
00000380: dad4 9cbf b22e 5cbf 5ab1 c3be de44 8bbf
00000390: d4ed 6f3c 2eda f4bf f25b 50bf fec6 8ebf
000003a0: 1208 3bc0 687a 3bbe 215c 343f 97c1 943e
000003b0: cc83 42bf 2660 cebf 31ff bb3f 750e 6bbf
000003c0: 8d8c 89be 529d 61bf f000 423f 9047 9abf
000003d0: d940 17bd 1641 eb3e 056e a43f a0a0 9abf
000003e0: 19ee 02c0 5152 393f 101e 4abf 5de7 5fbd
000003f0: d1c3 cfbf 69c2 70be 894d 0740 5a20 4abf
-0.6583226 -0.90040606 -0.4612552 -0.89115417 -0.14186671 -0.54277545 0.5337599 -1.3464333
-1.562703 -0.85585165 0.28861403 -0.43905824 -0.25254977 -1.200453 -1.3303225 -0.5706683
-1.9952345 -0.04480426 -1.0630099 -2.362529 -0.9768269 0.10821929 0.39394182 0.03404165
-0.36738965 -0.22238001 -1.2425349 -1.3653402 -0.5882247 -1.3559531 -0.73752147 -0.13156296
-0.9809915 -0.12059075 -0.6338019 -1.3476824 -0.5995435 -1.1780255 -1.4857954 -1.2414448
-2.4254968 0.062665045 0.41490322 -0.45407054 -1.3633729 -2.1056097 0.664258 -1.6190085
-0.57091767 -0.53850824 0.66929144 -1.4002633 -0.014888838 0.2798967 1.4644237 -0.80689496
-1.6519855 0.8197413 -0.3532231 -0.38906807 -0.9389669 -0.73203194 1.8011897 -1.013281
0.1274173 -0.029207956 0.18066175 0.56100106 -0.16243361 0.12266942 -1.0338472 -0.71379185
0.37003464 0.3222349 -1.0511796 0.1944688 -0.48622718 -1.0856608 -0.94168985 -1.5469675
-0.9064263 0.015321766 -0.6178283 -1.6228653 -0.28790715 -0.32767242 -0.54701924 0.44494358
-0.47125545 -0.3432279 0.17082441 -0.070866965 -0.036880735 -0.90979964 -0.42051956 0.08116184
-0.74746376 0.045904532 0.57666767 -0.527775 -1.3510325 0.012941208 0.22286512 -0.71028864
-0.7536648 -0.9291736 -0.73912555 -0.6357731 -0.82065934 -1.0397577 -0.18417601 -0.9529474
0.3497033 -1.1555413 -0.13917273 -1.3777605 -0.23964514 -0.7140136 -0.20396055 0.22468401
-1.0380198 -0.76339304 -0.021286776 -1.1418263 -0.4622157 -0.50999033 -1.1840191 -0.36163905
-0.55292076 -1.3258394 -1.9357072 0.4513613 -0.08190202 0.7924655 0.4313615 -0.06970556
0.34965694 -0.8816543 0.054924857 -0.78960365 0.36231667 -2.2880998 -0.22895488 -0.49308947
0.77635443 -0.90012056 -0.8911701 0.013718802 0.8964152 -0.018067364 0.757497 1.546539
0.33116966 -1.4944879 -0.31323054 0.83122134 0.96767324 0.65376633 -2.347595 -1.0788112
0.23883045 1.9400908 0.53103477 0.11951478 -0.58374465 -0.4134196 -1.2521195 0.8585029
-1.5878279 -0.4059443 -0.5757662 1.0124776 -0.07310281 -0.87649125 0.566226 0.7120969
1.8641669 -1.2727668 0.05817322 0.21175031 0.022535687 0.030534016 0.016698932 -0.94857866
-0.88581604 -0.7474464 -0.9410672 0.8547006 -1.300428 -0.0042217006 -0.1974626 0.39762533
-0.7988609 -1.4314873 -0.73959434 0.121973 -1.1567565 -1.3292016 0.6611592 -1.1426284
-1.5191455 -0.41774642 0.83727354 0.16841237 0.1046585 -2.6549473 -1.5110081 -1.09688
-1.6907886 0.35275632 -1.1982499 -2.2353423 -1.5565795 0.20750116 0.3530976 0.5200107
-0.056826923 -1.2400155 -1.9241903 -1.0224218 -1.4932095 -2.4066586 -1.1806929 -0.04442899
-1.2252457 -0.8600875 -0.38221246 -1.0880392 0.014644105 -1.9129083 -0.813903 -1.1154478
-2.9223676 -0.18308413 0.7045308 0.29053947 -0.75982356 -1.6123092 1.4687253 -0.91818935
-0.26865044 -0.88130677 0.7578268 -1.2053089 -0.036927078 0.45948094 1.2846075 -1.2080269
-2.0457823 0.7239123 -0.7895212 -0.054664005 -1.6231633 -0.23511662 2.1141074 -0.78955615

fc.weight f4 [1, 64]
00000000: a7ed 293f 062f 363f e713 f0be 2e39 5e3f
00000010: 2d0c 35bf 7df4 213f 9bcd 4e3f 2891 98be
00000020: b69a 833f cbb1 76bf cae6 6b3f 16ea 5abf
00000030: 590e 0e3f 2202 5d3d c541 68bf 3d5e a93f
00000040: 394a ea3f 364c 1940 f3bd 8bbf aa24 a6bd
00000050: 6186 99be 871d 94bf 1852 353f c120 9dbe
00000060: e0d5 85bf c948 e8bf 6b51 8e3d 4b87 efbd
00000070: c20e 773f ea43 a9be 8c55 14bf bdec 06c0
00000080: 2916 e43e ad36 2c3d d3e1 c03f 7cac a3bf
00000090: 34e4 c6bf c6c6 9c3e 5bc1 c03d 4075 b43e
000000a0: 298c 9cbe 5b16 a5bf 4109 ebbc 9f4d ff3f
000000b0: 0700 9e3e 67ea 433e b939 d23e 652d 623d
000000c0: 2a19 cd3d 4456 3dc0 f97b 0bbf 678f 27bf
000000d0: 4e0d 17bd 23f1 03c0 e597 c13f 7626 e6be
000000e0: 4c7c 71bf 6bf1 1fbf ac4f 973e 8a16 b93f
000000f0: 7852 9bbf 8da8 89bf fbfa 6a3e fa1a 9d3f
0.66378254 0.711655 -0.46890184 0.86806 -0.70721704 0.63263685 0.8078248 -0.29798245
1.0281589 -0.9636504 0.9214903 -0.85513437 0.5549064 0.053957112 -0.90725356 1.3231884
1.8303901 2.3952765 -1.0917343 -0.08112462 -0.29985335 -1.1571511 0.7082839 -0.30689052
-1.0455894 -1.8147212 0.06949123 -0.11695727 0.96506894 -0.33059627 -0.57943034 -2.1081994
0.44548157 0.04204433 1.5068916 -1.2787013 -1.5538392 0.30620402 0.0941188 0.35245705
-0.30575684 -1.2897447 -0.028690936 1.9945563 0.30859396 0.19132386 0.41059664 0.055219073
0.10014565 -2.9583902 -0.5448604 -0.6545319 -0.036877923 -2.0615928 1.512448 -0.44951218
-0.94330287 -0.6247775 0.29552972 1.4460003 -1.2134542 -1.0754563 0.22947304 1.2273858
