models/lstm/models/trained_lstm_model.pth (torch, 179069 bytes, 7 tensors)

event_embedding.weight f4 [4, 3]
000000 85 1c 01 3d 7d 6e 19 bb 45 6d 00 bc 1f 0a d5 be
       0.03152134 -0.0023411803 -0.007838552 -0.41609284
000010 f9 e4 13 c0 8c 72 b6 3e 4c ca ab bd eb 48 df bf
       -2.3108504 0.35634267 -0.083881944 -1.7444128
000020 7f 59 6e 3f 31 27 e3 be 2e d5 6a bc d9 53 b7 3c
       0.9310531 -0.44365838 -0.014333053 0.022378849

lstm.weight_ih_l0 f4 [400, 7]
000000 31 54 09 3f a4 86 25 be 07 05 d2 3d 67 90 54 bd
       0.5364409 -0.16164643 0.10254865 -0.051895525
000010 da 18 4c bf 73 5f 8c 3e 2e 3f c0 be cb 1c eb 3e
       -0.7972542 0.27416572 -0.37548202 0.45920405
000020 8c 8f d0 bf 78 c1 3f 3f be 8b ea bf 95 de 75 bf
       -1.6293807 0.74904585 -1.8323896 -0.9604276
000030 c9 87 44 3f a5 41 24 bf ce 43 cc 3d 67 10 6b be
       0.7676969 -0.64162666 0.0997387 -0.22955476
000040 2a 4e 14 3e d5 75 81 be 7c a1 a3 bd 10 4b d9 be
       0.14482942 -0.2528521 -0.07989785 -0.4244008
000050 a2 d8 17 bf 0e b6 d4 be 45 9b a1 be 72 4b 1c be
       -0.5931493 -0.41545147 -0.31563774 -0.15263155
000060 6b d9 aa be 02 4e 0f 3e ac e8 b0 be 3b c1 a4 be
       -0.33369002 0.13994601 -0.34552515 -0.32178673
000070 4e e1 dc bf 9f c6 b5 bf 67 ae 95 bf d2 b9 a7 bf
       -1.7256258 -1.4201239 -1.1693848 -1.3103583
000080 a6 ec 63 3d 00 cf 06 bf 45 f8 5a 3e 75 5a ab 3f
       0.055645607 -0.52659607 0.2138377 1.338698
000090 18 ea 8a be ff ea b9 3f 3d de a3 be 4d f0 89 bf
       -0.27131724 1.452484 -0.32005492 -1.0776459
0000a0 8a 57 8b 3f 3c af f6 be 92 78 e2 be 4a 6e 28 bf
       1.088609 -0.48180568 -0.44232613 -0.6579329
0000b0 ef fd ad be e0 6b 39 bf 25 09 1b 3e bc 25 b8 be
       -0.33982798 -0.7243023 0.15140207 -0.3596629
0000c0 07 54 78 bf de 51 b2 bd 68 53 86 bf 1c 3f 59 bf
       -0.97003216 -0.08707021 -1.0494204 -0.8486192
0000d0 3b 92 6e bf f6 83 dd 3f ae 2c b4 bd c1 96 bb bf
       -0.9319188 1.7305896 -0.087975845 -1.4655381
0000e0 5c 86 47 bf 49 4a 4b bf 3b 8e 1d 3f 2b 6f 19 bf
       -0.7793939 -0.79410225 0.6154515 -0.59935254
0000f0 ab 45 2c 3f ee 40 5f 3f 66 4b 9b bf 83 80 5f be
       0.67293805 0.8720845 -1.2132385 -0.21826367
000100 d2 be 51 be 87 1b 8d 3d b4 23 6f be 28 8a 2d 3e
       -0.20482948 0.06890016 -0.23353463 0.16947234
000110 1a 0c 86 be b7 0b e1 be 1c 1f b6 bf 50 2f 8c bf
       -0.26181108 -0.4395425 -1.4228244 -1.0951939
000120 80 08 10 3f 45 b3 3b bf 3e 90 2d bf 23 ae 28 be
       0.5626297 -0.7332042 -0.6779822 -0.16472678
000130 b8 db 84 3e 7e 71 aa be ad df de be 9a a4 36 3e
       0.25948882 -0.33289713 -0.43530026 0.17836228
000140 9d 4e e9 be 46 f9 2b 3f 82 69 08 be fe 17 22 bf
       -0.4556779 0.67177236 -0.13321498 -0.6331786
000150 06 c5 8e 3f 27 f9 11 bf 59 ef 7d 3f d7 be 48 be
       1.1153877 -0.570208 0.9919334 -0.1960405
000160 74 33 bb 3d e5 3f 60 3e a0 94 e0 be 49 23 12 40
       0.09140673 0.21899374 -0.43863392 2.2834036
000170 98 b5 e0 3d 6d f1 8a 3f bf ae cc 3c e0 0f ad bf
       0.10972136 1.0854927 0.02498567 -1.352047
000180 74 ff f0 3e a2 de 26 3f 2d fa 09 bf bd 25 15 c0
       0.47069895 0.6518346 -0.5389736 -2.3304284
000190 76 73 fc bc fe dd 0f c0 ad 78 dd be 6d 31 a8 be
       -0.030816775 -2.2479243 -0.4325613 -0.3285021
0001a0 ff 89 26 be d7 90 a2 3e 8a 36 f7 3d 1d d1 62 3e
       -0.16263579 0.3175113 0.120709494 0.22150083
0001b0 c0 8f 9f 3d 7a 9d 37 bd 2c 47 5c be 37 21 f9 be
       0.0779109 -0.044827916 -0.21511525 -0.48658153
0001c0 aa 6c 95 be d1 10 45 3e 19 a5 41 bf d1 2e cf 3e
       -0.29184467 0.19244696 -0.75642544 0.40465406
0001d0 e5 d4 91 3f 3d e4 05 be 46 f7 45 bf ab d2 61 be
       1.1393095 -0.13075347 -0.77330434 -0.2205302
0001e0 9f b8 eb be a5 b6 e2 bd 94 77 f6 be d4 79 b5 3c
       -0.46039292 -0.11069993 -0.48138106 0.022152819
0001f0 b5 67 9b be 89 f6 1f bf 07 59 d1 bf dd a6 1d 3f
       -0.3035256 -0.6248556 -1.6355294 0.6158274
000200 85 9f 02 c0 55 41 13 3f e4 47 9c 3f 5c 03 d3 be
       -2.0409863 0.57521564 1.2209439 -0.412135
000210 e9 9c b2 be 52 d2 b8 3f 2b d3 ec 3f b3 51 eb 3f
       -0.34885338 1.4439185 1.8501943 1.8384308
000220 b4 df dc 3f a2 44 0a bf 21 a1 5a be f5 52 86 3d
       1.7255769 -0.54010975 -0.21350528 0.065587915
000230 27 11 a1 bd 05 6a 2b be c8 2c ba bd 75 01 84 be
       -0.078646 -0.16739662 -0.090905726 -0.25782362
000240 e1 7d 63 bd f8 ee c8 be 07 78 c4 be da 66 f9 3e
       -0.05553997 -0.3924482 -0.38372824 0.48711282
000250 1f ed 31 3f 94 83 9c 3e b1 eb 4e 3f 80 70 ac bb
       0.69502443 0.30569136 0.80828387 -0.0052624345
000260 da f2 66 3e 38 77 d0 bf bd c3 b4 3f bf b0 07 c0
       0.22553578 -1.6286383 1.4122235 -2.1201627
000270 ce 4c 10 3f 64 cd 0c c0 04 61 e1 bf a5 d7 95 3e
       0.56367195 -2.200036 -1.7607732 0.29266086
000280 78 e0 81 3e 6f f7 4f be 32 60 68 bf c8 b8 30 bf
       0.2536657 -0.20309232 -0.9077178 -0.69031954
000290 ab 29 43 bf b1 67 4e bf 76 64 bd bd 02 59 0b 3f
       -0.76235455 -0.8062697 -0.09247677 0.5443269
0002a0 4b 7f 24 3f 2e f4 43 40 bf fe ad 3f 89 01 3b 40
       0.64256734 3.0617785 1.3593367 2.9219687
0002b0 88 8b 9a be 73 28 06 3d 73 59 47 bf 93 f2 42 3f
       -0.3018458 0.03275342 -0.77870864 0.7615139
0002c0 d4 51 12 c0 e1 98 52 3f 1f 80 18 c0 9a c6 52 bf
       -2.2862444 0.82264525 -2.38282 -0.8233429
0002d0 2a 31 89 3f 32 9e c8 be 35 b8 04 3f a8 28 6c c0
       1.0718129 -0.39183193 0.5184358 -3.6899815
0002e0 6f c2 be 3e 69 25 5c c0 26 fa 4a 3e dd 3a 53 3e
       0.37257716 -3.4397833 0.19821987 0.20627923
0002f0 51 04 e1 be b8 89 f4 bf 9e 02 a6 bf bb fc a9 bf
       -0.43948606 -1.9104528 -1.2969549 -1.3280252
000300 8a ef bb bf a2 7f 2c bf e1 23 47 3f 90 18 1a bd
       -1.4682477 -0.6738225 0.7778912 -0.03762108
000310 bc 3b 92 3f 72 ef 2a c0 4a a2 e7 3e c2 24 3d c0
       1.142448 -2.6708646 0.45241004 -2.9553685
000320 31 f3 3c 3c e4 a8 98 3e 58 33 10 bf 56 c6 91 3d
       0.011532591 0.29816353 -0.56328344 0.07117908
000330 d7 7a 2a 3f 20 45 0b 3e 5a 5f 57 3f 94 a5 2a 3f
       0.6659369 0.13600588 0.8412987 0.666589
000340 48 6a 3f bd ce 51 39 bf 3f 5a b0 bf 14 db 7e bf
       -0.046732217 -0.7239045 -1.3777541 -0.99553037
000350 48 0a f7 be c2 4f 9a bf 32 e9 92 3e ba 60 26 bd
       -0.4825003 -1.205559 0.2869354 -0.04061959
000360 88 f8 02 bf 28 15 97 bc 1b bb 02 be 11 83 48 bc
       -0.5116048 -0.018442705 -0.12766688 -0.01223828
000370 14 23 66 be 4a 97 70 be c0 d9 90 be 59 47 f3 be
       -0.22474319 -0.23495212 -0.2829113 -0.4751537
000380 ee 4d a0 3d a4 88 13 40 27 a3 9e 3e 2c 9a f9 3f
       0.07827364 2.305215 0.3098385 1.9500175
000390 26 40 cc be 29 ab 9f 3e df 49 c6 be 28 74 35 bf
       -0.3989269 0.31185272 -0.38728234 -0.70880365
0003a0 9c 4a 03 3e db a8 31 bf eb a7 de 3e 83 9c 3e 3f
       0.1282143 -0.6939828 0.43487486 0.7445757
0003b0 1f 55 d8 bd 3c 8f 8b be 9a 57 c3 c0 45 46 31 3f
       -0.105631106 -0.27257717 -6.1044436 0.6924785
0003c0 fd 22 01 c0 c0 6e 03 3f 91 37 e6 be 76 d4 75 3b
       -2.0177605 0.51340866 -0.4496427 0.003751067
0003d0 33 c5 fb be 1b 6c 00 3e a7 29 41 3f 62 da 8b 3e
       -0.4917389 0.12541239 0.7545418 0.2731505
0003e0 de 1c 35 3f 20 e5 8e bf 7e 85 9b bd 4f bc 74 be
       0.7074717 -1.1163673 -0.07593821 -0.23899959
0003f0 3b c0 dc 3f 3f 6f ba 3f 51 fa 00 40 f4 c2 d8 3f
       1.7246164 1.45652 2.015278 1.6934495

lstm.weight_hh_l0 f4 [400, 100]
000000 7e 4e e4 bd 54 f4 b1 be 5c 5b be bd c1 c2 2e be
       -0.11147784 -0.3475672 -0.09294769 -0.1706648
000010 bd 86 db 3e 91 2a 67 be b3 0f d7 bd 47 9b 51 3e
       0.42876235 -0.22574832 -0.10501041 0.2046939
000020 96 25 25 bd 03 3a 32 be 66 a0 02 3f 8c 66 7e be
       -0.040319048 -0.17404942 0.51026 -0.24843806
000030 00 b9 15 3e 0d ad 25 bd e5 33 a6 be 2b 37 2c bc
       0.14621353 -0.040448237 -0.32461467 -0.0105112
000040 3c c5 98 be d4 3a 77 3d 85 a2 12 be 01 37 56 3f
       -0.29837978 0.060358837 -0.14319809 0.8367768
000050 77 56 ad bc 41 b7 f2 bd 42 cd 05 3e d3 f2 87 bd
       -0.021159394 -0.11851359 0.13066581 -0.06638112
000060 9e e4 f5 be 79 81 f1 bd 94 c6 47 bf 6d 3f 85 3e
       -0.48025984 -0.11792273 -0.7803738 0.26024953
000070 95 bf 31 bf 36 a2 5b be 8d a6 7a be e7 36 9e bc
       -0.69432956 -0.21448597 -0.24477597 -0.019313289
000080 25 8d 88 3e 99 42 90 3e fa 64 c9 be 8e 3f 1c be
       0.26670185 0.2817581 -0.39334852 -0.15258619
000090 3b cd 03 bf 50 ce 16 3f 54 4e 6a 3d 91 0c 23 3e
       -0.5148503 0.5890856 0.057203606 0.15922762
0000a0 26 dd 93 3f bd 6c 47 3e 22 35 1a 3e 5c 89 8c 3e
       1.1551864 0.19475074 0.15059331 0.27448547
0000b0 05 8e 93 3d 6e 9b f4 bd ec 98 d1 bd 2b dc 59 bf
       0.072048225 -0.11943708 -0.10234246 -0.85101575
0000c0 25 ba b2 be cf 78 43 bf e4 79 9c 3d 33 62 1b bf
       -0.34907642 -0.76356214 0.07640436 -0.60696715
0000d0 d2 4e 64 bf d2 56 17 3d 1a 01 f0 3b df b1 63 3d
       -0.8918277 0.036948033 0.00732435 0.055589553
0000e0 46 45 aa 3c 46 9e 8c 3e e9 02 e6 be 60 7e f3 3e
       0.020784985 0.27464503 -0.44924095 0.47557354
0000f0 d0 dc 1f be 47 95 02 bf fe 35 fb 3c eb 89 05 be
       -0.15611577 -0.5100903 0.030665394 -0.13040893
000100 5f f1 2f 3e 8a a0 78 bd 8d f4 2a 3f 24 ab 4e bc
       0.1718192 -0.060699977 0.66779405 -0.012614045
000110 85 e2 3c bf 95 d5 a6 3d 6a 78 b5 bd 6c 31 ed be
       -0.7378314 0.08146206 -0.08860858 -0.46326768
000120 8d 5d 16 bd 63 fd f1 bd a1 10 59 be db 7c 76 be
       -0.03671031 -0.11815908 -0.2119775 -0.24071066
000130 25 7b a3 be 3d 48 09 be bc b0 b4 bd 5f cf 09 3e
       -0.3192989 -0.13406463 -0.08822772 0.13458012
000140 a4 4a 97 3f 94 e7 99 bf be 0a c8 bd 32 94 2c bf
       1.1819654 -1.2023797 -0.09767674 -0.6741363
000150 51 69 02 bf 15 d0 0b bf ac 96 12 3d f7 a6 44 3e
       -0.5094195 -0.54614383 0.035788223 0.19204317
000160 23 17 8d be 08 37 d5 bb ff 41 df 3e db 20 9a bd
       -0.27556714 -0.0065068044 0.4360504 -0.07525798
000170 ee 7e b8 3d 99 64 9c be 74 dc 09 bf 76 cc 1f 3f
       0.09008585 -0.305455 -0.5385201 0.6242136
000180 2f 70 9c bd 8b e1 b0 bc b5 ce 18 bd fb 83 11 3e
       -0.07638585 -0.021591922 -0.037306506 0.14210503
000190 f0 8e 84 bd e0 8f 89 bc 5e de e1 3d 15 38 92 bd
       -0.06472576 -0.016792238 0.11028741 -0.07139603
0001a0 d9 b7 1e 3d 1b 53 e6 be 72 44 49 bd 78 4c 36 be
       0.03874955 -0.4498528 -0.04913754 -0.17802608
0001b0 a2 6d ff bc 08 ef 0c 3e b5 89 98 be eb 48 ef 3c
       -0.031180207 0.13763058 -0.29792562 0.029209575
0001c0 7b 60 47 3e ae 3e 01 bb ea 60 cd 3f 05 9a 59 3d
       0.19470398 -0.0019721198 1.6045201 0.0531254
0001d0 c3 4f 61 3f a0 3e f5 bd 14 6b 10 c0 51 72 a4 bf
       0.8801233 -0.119748354 -2.2565355 -1.2847387
0001e0 fc 16 07 bd 68 12 82 bf d0 11 0d be d2 57 83 3f
       -0.032980904 -1.0161867 -0.13776326 1.0261176
0001f0 dd 53 62 be 23 81 5f be f8 9a c9 3e 83 3b 42 3e
       -0.22102304 -0.21826605 0.39376044 0.18968014
000200 db da af be d9 13 1a bf 08 24 ab 3e 5d 22 af 3d
       -0.3434666 -0.60186535 0.33425927 0.08551476
000210 7c 25 97 3e 39 37 12 3f 11 d4 b3 3f 20 8b 83 be
       0.29520786 0.57115513 1.4049093 -0.2569208
000220 25 c2 73 be 44 7d e2 3e 0c 51 7a 3e 4c ca af bd
       -0.23804529 0.44236195 0.2444498 -0.08583507
000230 6c 92 88 bf 11 76 f1 3e 6a a6 95 be 2c 7d 1b 3f
       -1.0669684 0.4716039 -0.29228526 0.6073787
000240 9c bb 78 3e 46 69 0c bf 9d ed fa 3f c9 c0 06 3e
       0.24290317 -0.54848135 1.9603764 0.13159479
000250 86 a4 f5 3e 79 95 48 3e 4d aa a7 bc 87 7d 15 3f
       0.47977084 0.1958827 -0.020466948 0.58394665
000260 cc ab d0 3f f3 11 8a bd be f4 cc bd 28 33 1c 3c
       1.6302428 -0.06741705 -0.10007618 0.009533681
000270 71 3b 86 bc 2b 3d 81 3e 7d 4a 9e 3c 88 af f6 be
       -0.016385766 0.2524198 0.019322628 -0.48180795
000280 a5 1d 98 be 9f e4 12 3f fb 6c 30 3e 19 64 8b bf
       -0.29710117 0.573801 0.17229073 -1.0889922
000290 f7 17 23 be 50 77 c9 3e a3 c5 a2 bf 3b 7f 6a be
       -0.1592711 0.3934884 -1.2716564 -0.22900097
0002a0 b1 c5 4a be 82 1d db bc a0 ef 07 bd 1e cc 37 3f
       -0.19801976 -0.026747469 -0.03318751 0.71795833
0002b0 17 ad f9 bd 23 07 80 be 63 43 59 bf 1a 38 1e be
       -0.121912174 -0.25005445 -0.8486845 -0.15451089
0002c0 37 c3 60 bf d6 df 83 be 34 02 b4 3e 4e 7d 8a bf
       -0.87797874 -0.2575671 0.3515793 -1.081949
0002d0 e4 4b 7a bf 87 9d 74 3f 97 d2 77 3c 56 8d 33 bf
       -0.9777205 0.9555287 0.015125892 -0.70137537
0002e0 3e ac 52 3f f1 5a 5d bd a1 f2 73 3e 96 d8 63 3d
       0.8229407 -0.054041807 0.23823024 0.055626474
0002f0 47 a3 23 3d 0d 74 47 3d ec 19 b7 bd da 40 19 be
       0.039950635 0.04869466 -0.08940491 -0.14966145
000300 18 ee 9f bc 8d b7 cd 3c de 4b 85 be e2 a9 be bf
       -0.019522712 0.025111938 -0.26034445 -1.4895594
000310 2f ff 2f 3f 7a fc 6c bd d8 84 86 3d a5 87 97 3f
       0.68748754 -0.057857968 0.06568307 1.183827
000320 6f f5 14 be 92 2e 11 be c7 f3 b3 bd bd 42 af bc
       -0.1454675 -0.14177921 -0.08786731 -0.021394128
000330 64 53 53 3d e8 f1 d6 3c 04 84 94 bb f6 ca e5 3c
       0.0515932 0.026238397 -0.004532339 0.02805088
000340 77 17 13 3e a3 3d a0 3b 01 36 6f 3e f1 2d 0c be
       0.1436442 0.00489016 0.23360445 -0.136894
000350 71 58 38 b9 1a 16 19 be fe a3 27 bd f9 a8 38 3d
       -0.00017580554 -0.14949837 -0.04092788 0.04508302
000360 91 df e9 3d 67 39 1f be 33 86 93 be db 3f 74 3c
       0.11419595 -0.15549241 -0.28813323 0.014907802
000370 2c 3c 53 bd 9a 47 0e be 9f 75 97 bc cf 7d a0 3d
       -0.051571056 -0.13894501 -0.018488703 0.07836496
000380 53 7d 1b be e4 a1 5c bd e8 7a b8 3d 74 bb 7c 3d
       -0.15184526 -0.05386533 0.090078175 0.061702207
000390 1d b6 d3 3d d3 5d 8c bd 24 da 54 be 8b a1 cd 3d
       0.1033747 -0.06853833 -0.20786339 0.100405775
0003a0 55 b1 48 bd 4a 16 3c bd 54 50 5b be 76 7a 11 bd
       -0.048997242 -0.045919694 -0.21417361 -0.03551718
0003b0 7f c2 0a bd be df 80 3e 5e 62 bb bd 88 da 59 3d
       -0.033876892 0.25170702 -0.091496214 0.053186923
0003c0 be 32 08 bd 98 b9 b4 3c 95 30 68 3d 55 21 ae 3d
       -0.033251517 0.022061154 0.056686956 0.08502451
0003d0 45 7b ba 3d 57 17 ca 3d 6a 25 93 bc 07 7a 61 be
       0.09105543 0.09867733 -0.017962176 -0.22019206
0003e0 7e 8e b5 bd ac f3 63 3e 45 0a bc ba 8d 6a 27 bd
       -0.08865069 0.22260922 -0.0014346322 -0.0408731
0003f0 54 2d 78 3e 51 4e b4 bd e3 c7 a1 bd 4a 52 1d bc
       0.24236041 -0.08804 -0.078994535 -0.009602139

lstm.bias_ih_l0 f4 [400]
000000 10 13 ad bf 5d 09 d2 bd 21 f7 ed bf 3b 00 b8 bf
       -1.3521442 -0.10255692 -1.8591043 -1.437507
000010 44 ed 4f bf 73 79 b8 3c f4 27 f5 bf 4f 02 5c bf
       -0.81221414 0.022518849 -1.9152818 -0.8594102
000020 aa 81 14 bf 1b d6 f7 bf 10 d0 30 bf 5f 72 de bf
       -0.5801035 -1.9362215 -0.6906748 -1.7378653
000030 1f ab 86 bf 06 a9 c5 be ca 95 b2 be a3 01 ed bf
       -1.0520972 -0.38605517 -0.34879905 -1.8516124
000040 59 59 b4 be 26 ef ea bf 8e 7f 13 bf 3d d4 5f bf
       -0.35224417 -1.8354232 -0.5761651 -0.87433225
000050 d4 12 00 c0 64 eb aa be 40 c2 13 bf 84 01 31 bf
       -2.0011492 -0.33382714 -0.57718277 -0.6914294
000060 fc 7e 0c bf 1f bb 82 bc ad 4a 00 bf 0d 04 77 be
       -0.5488126 -0.015958367 -0.50113946 -0.24122639
000070 c2 14 01 bf 82 52 86 bf 22 87 44 bf d1 d7 f3 bf
       -0.504223 -1.0493929 -0.76768696 -1.9050237
000080 d7 d8 86 bf 6c fa cf be 3c 2c c9 be 16 70 9a bf
       -1.0534924 -0.40620744 -0.3929156 -1.2065456
000090 0b 43 b2 be e7 a2 84 bf e6 09 ed be 3b 24 f5 bf
       -0.34816775 -1.0362214 -0.46296614 -1.9151682
0000a0 dd 30 26 be f9 5a 80 be 3b a6 df be 67 e1 d0 be
       -0.16229577 -0.25069407 -0.4368151 -0.40796968
0000b0 a7 eb 28 bf 04 55 01 bf 18 b4 28 bf 77 38 f2 be
       -0.65984577 -0.5052035 -0.658998 -0.47308704
0000c0 e5 63 08 bf 7e 7f 81 bf 29 ea f5 bf 35 ab 23 bf
       -0.53277427 -1.0117033 -1.9212085 -0.63933116
0000d0 a0 c5 bf be 33 6e a2 bf 7f d0 1d bf 44 8c f6 bf
       -0.37455463 -1.268988 -0.61646265 -1.9261556
0000e0 b2 0e a6 bf ad 6d d7 be 21 bb 14 bf 9f bf b6 be
       -1.2973235 -0.42075863 -0.58098036 -0.3569307
0000f0 8c 26 0d bf ef 56 39 bf 3c 78 09 bf 95 f3 a6 be
       -0.5513694 -0.72398275 -0.5369909 -0.32607713
000100 b6 c4 b0 bf e4 b6 3a bf 4e b8 08 bf f1 66 67 bf
       -1.3810031 -0.7293532 -0.53406227 -0.9039145
000110 08 2d 30 bf 83 f0 f2 bf 4b e8 f7 bf 0b e7 ff be
       -0.6881871 -1.8979648 -1.9367765 -0.4998096
000120 c3 0d 86 bf ed 7c 26 bf c6 99 ab be 39 d7 61 bf
       -1.047295 -0.6503437 -0.33515757 -0.8821903
000130 a5 68 32 bf 86 d5 4f bf eb 24 2d bf 0d 15 65 bf
       -0.69690925 -0.81185186 -0.6763446 -0.89485246
000140 e6 6a 68 bf fa 34 2e bf e8 b9 97 bf 45 4f 1b bf
       -0.90788114 -0.68049586 -1.1853609 -0.6066783
000150 7e 7b 69 bf b2 97 1d bf dc 50 07 bf 61 1a 91 bf
       -0.9120406 -0.61559594 -0.52857757 -1.1336175
000160 2b ba 4a bf 87 c5 fc bf c3 35 10 bf d7 cf ee bf
       -0.7919032 -1.974778 -0.56332034 -1.8657178
000170 71 e8 30 bf 38 4f 5b bf 2b 20 bf be 94 8c 17 bf
       -0.6910468 -0.85667753 -0.3732923 -0.5919888
000180 2a e1 78 bf 91 99 ee bf 42 9b f3 bf 41 a0 39 bf
       -0.97218573 -1.8640615 -1.9031756 -0.72510153
000190 cd 5d 1b bf b4 67 80 bf e8 0a 38 bf 1b 7e 8a bf
       -0.60690004 -1.0031648 -0.7189164 -1.0819734
0001a0 ca 31 10 be c2 d0 28 bf a2 e8 71 bf 4b 46 e4 be
       -0.14081493 -0.6594354 -0.94495595 -0.4458488
0001b0 2f 93 a8 be b8 35 3d bf e3 19 59 3e 49 fb 6b bf
       -0.32924792 -0.73910093 0.21201281 -0.92180306
0001c0 60 1d 7f bd 24 f7 e9 be f3 00 49 bc 0f 3c 53 bf
       -0.062283874 -0.45696366 -0.012268293 -0.8251352
0001d0 5e ad a6 bf 8a 8e 42 bf cc 83 d0 3e 8f ef 27 3f
       -1.3021657 -0.7599875 0.40725553 0.6559991
0001e0 d8 2d 47 bf 92 37 bd be f0 f5 87 bf 86 05 2a bf
       -0.77804327 -0.3695646 -1.0621929 -0.6641468
0001f0 f2 a7 10 bf c3 26 82 be cb 9b 94 be 0d f6 95 be
       -0.56506264 -0.25420198 -0.2902511 -0.29289284
000200 91 76 2f bc 4b ae c8 bf 05 b2 75 bf 33 aa 5f bf
       -0.010709421 -1.567819 -0.9597476 -0.8736908
000210 56 82 e1 3e e3 9f 03 3f 10 c2 6b 3e 52 5e b3 bf
       0.4404475 0.5141584 0.23023248 -1.4013159
000220 ed 50 69 bf fe bd 96 bf 4b f7 33 bf aa d1 5b bf
       -0.9113911 -1.1776731 -0.70299214 -0.85866797
000230 51 bf 12 bf a2 55 88 be 81 fe f2 3d 62 c1 a6 be
       -0.57323176 -0.26627833 0.11864949 -0.32569414
000240 d6 f3 d4 be e5 7b 0b bf c3 b6 8b 3e aa a0 5b bf
       -0.41592282 -0.54485923 0.27287874 -0.8579203
000250 4b 10 87 be 7c ef 0c 3b 75 5b 48 bf b3 b5 40 3e
       -0.26379618 0.0021505048 -0.7826455 0.18819313
000260 8e 51 94 3e 31 c0 9e bf 85 0b 06 bf 24 47 66 bf
       0.2896847 -1.2402402 -0.5236133 -0.899523
000270 b4 3e a8 bf 94 7a 37 bd e8 6e 33 3f a1 b8 93 bf
       -1.3144135 -0.044794634 0.70091105 -1.1540719
000280 62 38 ef be 4e d0 1d be 6d 0f c4 be 3f 50 5b 3f
       -0.46722704 -0.15411493 -0.3829302 0.8566932
000290 b7 67 84 bf eb 5b 68 bf 17 e9 c4 3d 99 75 39 bf
       -1.0344151 -0.90765256 0.09614771 -0.72445065
0002a0 cf 40 64 3d 9c aa 5f bf 5f 49 32 bf 1b 44 85 3e
       0.05572587 -0.87369704 -0.69643205 0.26028523
0002b0 0e 1a 81 bf 2e 55 6b 3d 1a dd b1 bf 08 0c 1a bc
       -1.0086076 0.05745428 -1.38956 -0.009402283
0002c0 d5 c4 76 bd f8 64 1b bf 26 15 75 bf 92 73 13 bf
       -0.060246307 -0.6070094 -0.95735395 -0.5759822
0002d0 ac cc b1 be 1e d9 be 3e 2c e4 88 bf bd e6 2c bb
       -0.34726465 0.37275022 -1.0694633 -0.0026382648
0002e0 a5 f9 0f 3f fe 0e 3f 3f b7 44 2a bf 0a 7f 9d bf
       0.562403 0.7463225 -0.665111 -1.2304394
0002f0 70 22 22 bf 12 e4 5c bf 3d 85 ee be e4 1c 82 bf
       -0.633338 -0.8628551 -0.46586028 -1.0165067
000300 a7 d5 2b be 03 5d 8c be aa 66 f9 3e a3 22 91 3e
       -0.1678072 -0.27414712 0.4871114 0.28346738
000310 b6 79 ac 3e 40 a3 82 bf 45 28 5c bf df f1 28 3f
       0.33686608 -1.020607 -0.85998946 0.65994066
000320 46 50 aa bc c8 5f 1c 3e 7b 86 86 bd c1 68 e9 bc
       -0.02079023 0.15270913 -0.06568619 -0.028492333
000330 cc 3d 0c 3d 43 cd 32 be 9b 83 3c bd 16 29 90 bc
       0.03423862 -0.17461114 -0.046023946 -0.017597716
000340 d7 f2 09 be 75 e9 ad bd 3a 49 f8 bc 91 f7 60 3c
       -0.13471542 -0.08491794 -0.030308355 0.013730899
000350 aa c7 c4 bd 7f 06 82 3d d0 b5 53 bd 89 e2 72 3b
       -0.096083954 0.06348895 -0.05168706 0.0037061295
000360 bf 50 6d 3d b3 c1 7d 3b 76 14 b7 bd 12 33 31 be
       0.057938334 0.003872019 -0.089394495 -0.17304638
000370 73 b4 8d 3d da 81 b4 3d 3c 88 6c 3d c1 95 8d 3d
       0.069191836 0.0881383 0.05774711 0.06913329
000380 8a 27 15 3e e2 97 08 3e fb 01 82 bd c1 8f 9f 3d
       0.14565864 0.13339189 -0.06348034 0.07791091
000390 8e 68 b1 bc 1c 97 70 3d fb ed 67 3d 46 1b 82 bb
       -0.0216563 0.05873786 0.05662344 -0.0039705364
0003a0 d7 14 5f bd 7e 36 58 bd 2e 11 f0 3d 0d df f4 3c
       -0.054463234 -0.052786343 0.11722027 0.029891515
0003b0 0f 0a 28 3e 1a 4e 31 bc 44 c4 c7 3d 98 c6 5d bc
       0.16410087 -0.0108218435 0.097542316 -0.013536118
0003c0 72 b7 18 be 04 ff 8c bd 06 fc 06 bd c4 9a f8 bb
       -0.14913729 -0.06884578 -0.032955192 -0.007586809
0003d0 06 d2 b2 3b 9b 67 90 bd 9f 39 6e 3d 67 61 a2 bd
       0.0054571657 -0.07051011 0.05816042 -0.07928734
0003e0 b0 82 3c bd 84 65 88 3d b7 51 8a 3d 00 f7 fb 3d
       -0.04602307 0.066599876 0.06753867 0.12302971
0003f0 9d 18 b1 bd 2e da 54 bd ae 2b 38 be d4 10 86 ba
       -0.08647273 -0.051965885 -0.17985412 -0.0010228404

lstm.bias_hh_l0 f4 [400]
000000 71 37 b5 bf 74 15 8b be 41 95 f2 bf be 3b b8 bf
       -1.4157544 -0.27164805 -1.8951799 -1.4393232
000010 5f 29 45 bf 3b 37 a0 bd ce e4 f6 bf 11 a2 5e bf
       -0.7701625 -0.078230344 -1.9288576 -0.86966044
000020 a5 87 0a bf 31 5c fa bf a8 8b 38 bf e6 48 d5 bf
       -0.5411323 -1.9559385 -0.720881 -1.6662872
000030 2f f2 8b bf 8d 7f 9a be 55 38 bd be 26 d7 ef bf
       -1.0933284 -0.3017544 -0.3695704 -1.8737533
000040 9b d5 36 be 23 e1 ec bf b3 51 0e bf dd 4a 6d bf
       -0.17854922 -1.8506206 -0.55593413 -0.9269236
000050 9e 14 00 c0 c2 59 fe be 31 08 0c bf 91 8a 11 bf
       -2.0012584 -0.49677855 -0.547 -0.5685206
000060 1f 22 0f bf 13 a0 ee bd 09 d7 04 bf c9 81 68 be
       -0.5591144 -0.116516255 -0.5189062 -0.22705759
000070 68 30 f0 be 04 72 8a bf 73 8a 43 bf 9f 81 f5 bf
       -0.4691193 -1.0816045 -0.7638313 -1.9180182
000080 80 d1 65 bf 90 56 f3 be 4d 2f c8 be f9 7f 86 bf
       -0.89772797 -0.4752698 -0.39098588 -1.0507804
000090 87 98 a7 be 1f d2 7d bf 3d 2c eb be 39 d9 ed bf
       -0.32733557 -0.99148744 -0.4593219 -1.8581916
0000a0 70 f2 31 be f3 6e d9 bd be 83 dd be f7 69 ee be
       -0.17377639 -0.10616865 -0.43264574 -0.4656522
0000b0 ad d1 1c bf 2a d4 f8 be 1a f2 f8 be d0 f1 0b bf
       -0.6125744 -0.48599368 -0.4862221 -0.5466585
0000c0 33 e6 0d bf 19 b8 74 bf 0c 43 f3 bf 14 41 1a bf
       -0.5542938 -0.9559341 -1.9004836 -0.6025555
0000d0 4f 41 e0 be 9b fb 9d bf 7d ac 0e bf 57 26 f2 bf
       -0.43799827 -1.2342409 -0.55731946 -1.891795
0000e0 41 b7 97 bf 0c 61 db be 97 31 20 bf a1 fc e5 be
       -1.18528 -0.42847478 -0.6257567 -0.44919303
0000f0 6b 99 c5 be 65 2e 49 bf fc dd 1a bf ca 52 b3 be
       -0.3859361 -0.7858642 -0.6049497 -0.350241
000100 53 38 a2 bf 7c ed 31 bf bb f8 27 bf e9 67 3a bf
       -1.2673439 -0.69503 -0.6561391 -0.72814804
000110 82 80 06 bf ee 36 fe bf f4 3b 00 c0 d4 6d ce be
       -0.5253984 -1.9860513 -2.0036592 -0.40318167
000120 f2 2a 81 bf 80 64 31 bf c2 50 c4 be 41 2e 62 bf
       -1.0091231 -0.69293976 -0.38342863 -0.8835183
000130 d0 84 07 bf f5 88 1f bf 71 6c 1e bf fa 62 35 bf
       -0.5293703 -0.62318355 -0.6188422 -0.7085415
000140 91 eb 6f bf 74 4f 09 bf 77 4e 90 bf 40 d1 18 bf
       -0.9371882 -0.5363686 -1.1273946 -0.5969429
000150 3f d0 53 bf 0c d1 37 bf 24 f8 0e bf 1f a8 92 bf
       -0.82739633 -0.71803355 -0.5584738 -1.1457556
000160 f3 0f 58 bf 58 97 f1 bf cc 8d fe be 8c 77 e9 bf
       -0.84399337 -1.8874311 -0.49717557 -1.8239608
000170 fc 63 1a bf 4a 16 74 bf 59 8c 92 be ef 71 0a bf
       -0.60308814 -0.9534651 -0.28622702 -0.540801
000180 25 85 80 bf 37 b3 f5 bf d9 85 e1 bf 25 c3 1b bf
       -1.0040632 -1.9195317 -1.7618972 -0.6084464
000190 89 58 1c bf 2c 8d 83 bf 91 95 47 bf cf de 83 bf
       -0.61072594 -1.0277457 -0.77962595 -1.0302371
0001a0 38 4b 08 be 52 ae 4b bf 34 cd 58 bf a2 e3 a2 be
       -0.13309944 -0.79562867 -0.84688115 -0.31814295
0001b0 93 e3 89 be f7 e3 4d bf 6f f6 ae 3e 56 2d 79 bf
       -0.26931438 -0.8042597 0.3417239 -0.973348
0001c0 9f 82 1b bc d0 d0 ee be f9 45 21 bd ff d8 66 bf
       -0.009491592 -0.46643686 -0.03937337 -0.9017486
0001d0 5c 85 b6 bf 29 95 49 bf ed 25 af 3e b0 37 27 3f
       -1.4259448 -0.78743225 0.34208623 0.6531935
0001e0 63 55 48 bf a5 16 08 bf 2f 25 80 bf c3 b7 1f bf
       -0.7825529 -0.5315955 -1.0011348 -0.62389773
0001f0 fa b7 05 bf 57 2c 7b be 57 42 91 be f7 d8 c7 be
       -0.5223385 -0.24528633 -0.28370926 -0.3903272
000200 31 a2 03 3d 79 85 ce bf d6 ed 63 bf b8 aa 5d bf
       0.0321371 -1.6134483 -0.89034784 -0.8658862
000210 f9 7d b5 3e f7 78 eb 3e b7 2b a3 3e c6 e8 aa bf
       0.35447672 0.45990726 0.3186929 -1.3352287
000220 ba 4f 85 bf 85 5d 88 bf 89 18 31 bf 85 2d 54 bf
       -1.0414956 -1.065354 -0.6917806 -0.8288196
000230 1f 3a 00 bf c8 94 9f be ee fe 3c 3e 2c 2a cd be
       -0.50088686 -0.311682 0.18456623 -0.40071237
000240 a2 7f b8 be 8e e1 f0 be b0 3b 13 3e db 87 37 bf
       -0.36034876 -0.47047085 0.14378238 -0.71691674
000250 7c f3 63 be 6f f4 c4 bc 0f a4 44 bf 73 27 0b 3e
       -0.2226085 -0.024042336 -0.76812834 0.13589267
000260 44 18 74 3e ef ca ab bf 0e eb 07 bf 3e 71 43 bf
       0.23837382 -1.3421305 -0.5309304 -0.7634467
000270 d9 f0 a3 bf 9c 92 bd bd 28 a3 30 3f 5a 5a 87 bf
       -1.2807876 -0.09256479 0.68998957 -1.0574448
000280 54 7a ee be b0 cb 14 be 85 b4 b7 be 7f 7d 4e 3f
       -0.46577704 -0.14530826 -0.35879913 0.8066024
000290 eb b4 79 bf b5 fb 4a bf 5d 6d 05 3e 03 a5 17 bf
       -0.97541684 -0.79290324 0.1303 -0.5923616
0002a0 19 f8 0c bd cb 91 42 bf 13 52 1f bf ae d2 4b 3e
       -0.034416292 -0.7600371 -0.6223461 0.19904587
0002b0 d3 6b 88 bf 1e 65 b0 3d 7f 77 a0 bf 4d 15 db bb
       -1.0657905 0.086130366 -1.2536467 -0.006685889
0002c0 53 df 7b bd d7 95 13 bf b6 39 69 bf 77 b2 28 bf
       -0.061492275 -0.5765051 -0.91103685 -0.65897316
0002d0 bb a3 94 be e7 c3 99 3e 2b 7b 91 bf 9c 42 a5 3b
       -0.29031166 0.30032274 -1.1365713 0.005043341
0002e0 4e ce 3a 3f 4a 8e 59 3f b6 7d 47 bf 98 9d 9e bf
       0.72971046 0.8498274 -0.77926195 -1.2391844
0002f0 40 52 01 bf 3b 81 58 bf 30 96 f5 be ac ef 87 bf
       -0.5051613 -0.8457219 -0.47966146 -1.0620017
000300 49 82 11 be 1b 51 bf be 78 a6 f7 3e fd 40 5a 3e
       -0.14209856 -0.37366566 0.48369193 0.21313854
000310 d8 29 a3 3e 09 01 82 bf c0 0d 67 bf 66 12 1f 3f
       0.31867862 -1.0156566 -0.90255356 0.6213745
000320 d8 c5 2f bd 0e 59 cb 3b 98 ca 8a 3d 4a 55 bf 3c
       -0.042913288 0.0062056845 0.06776923 0.023356099
000330 b7 ff cd 3d 90 ae 79 bd ee fb 40 3d fd 74 b6 3b
       0.10058539 -0.06095749 0.04711526 0.0055681453
000340 cf 02 07 3c df 7f b4 3d 9a 1a 98 bd dc 48 55 3d
       0.008240416 0.08813452 -0.07426949 0.052071437
000350 1c 2f cb 3c 6a 58 10 3d ef 80 a7 3d d0 0b 11 bc
       0.024802737 0.03524057 0.08178889 -0.008852914
000360 52 13 8f bd 86 e4 66 bc cb 67 56 be 0e c6 ed bd
       -0.06986107 -0.01409257 -0.20938031 -0.116100416
000370 3f 78 74 bd d5 cd 5c 3c ff ab 2e bd b7 b6 2c bd
       -0.059684988 0.013476809 -0.042644497 -0.042166438
000380 1b ff 00 3e 19 ee 1d 3d 05 63 c6 bd e4 9d d9 3d
       0.12597315 0.038557146 -0.09686855 0.10625818
000390 49 4e 51 3d f9 99 ad bd 2c 95 5f 3d 01 e6 1f 3c
       0.05110005 -0.084766336 0.05458562 0.009759427
0003a0 cc 26 9e bd 1e 2f 5b 3d 93 50 ee 3d 93 48 42 3b
       -0.07722244 0.05351173 0.11636462 0.0029645308
0003b0 a8 de ad 3d 0d c3 5b bd bd d9 dd 3c df 55 a4 bb
       0.08489734 -0.05365281 0.027081365 -0.0050151194
0003c0 a8 e7 ea bd e1 c3 22 be 86 6f 60 bd 6e 9f 2b 3e
       -0.11469966 -0.15895034 -0.054793857 0.16760036
0003d0 e5 08 52 3c 3e d5 33 bc e7 16 1f bd 32 3b 29 bd
       0.012819503 -0.010976134 -0.0388402 -0.04131622
0003e0 35 b6 0a be 3d ab e5 3b 0c 11 9e bd 6e db 02 bd
       -0.13546069 0.0070089386 -0.07718095 -0.031947546
0003f0 9a 07 10 be 04 53 87 3c ff 21 d0 bc 8c 17 2a bc
       -0.140654 0.016519077 -0.025406836 -0.010381591

fc_regression.weight f4 [4, 100]
000000 a7 27 88 3a f2 ec 84 3c 0e 34 35 ba 8b 56 40 3d
       0.0010387794 0.016226266 -0.0006912359 0.046957534
000010 ab d6 a2 bd a5 b2 0f bd 71 e2 0e 3c b2 52 0c 3e
       -0.07951101 -0.035082478 0.00872098 0.13703421
000020 6d b6 06 bc e7 35 a7 3b 24 f5 2f 3d ed 72 59 3d
       -0.008222205 0.005102861 0.042958394 0.053088117
000030 fc 4f 30 be 88 67 87 bd 0f 10 8f 3d 53 c7 96 bc
       -0.17218012 -0.06611544 0.06985485 -0.018405592
000040 fa a5 83 ba 17 1c 8e 3c a8 f8 d0 bb 94 f5 25 3d
       -0.0010043972 0.017347379 -0.0063772984 0.040517405
000050 95 a8 8f b9 2f bf 48 3d 76 69 0c bd 93 8b e4 bd
       -0.0002740069 0.049010452 -0.034280263 -0.11159434
000060 78 dd a9 3d 85 7a 09 3d e4 a8 df 3d d8 57 5d 3d
       0.08294195 0.03356411 0.10920885 0.054038852
000070 0d e2 c1 3d d3 26 4a 3e d4 6a 4b bc 58 16 a4 ba
       0.09466944 0.19741373 -0.0124156065 -0.0012518866
000080 5d fc 15 3c f9 b7 25 3d e0 11 ac bd ff 25 46 3e
       0.009154406 0.040458653 -0.08401847 0.19350432
000090 52 7d 0d bc 2e eb 46 3d 20 c0 87 bd 4d e5 76 ba
       -0.008635836 0.04856413 -0.06628442 -0.0009418324
0000a0 eb fb 09 bd 53 c9 b7 bc e3 46 0e bc e0 72 1b 3d
       -0.033687513 -0.022434866 -0.008683893 0.03795135
0000b0 f3 e4 81 bd 49 78 4f 3e 5a 8a 6e 3c 27 50 fd bd
       -0.06342497 0.20260729 0.014559353 -0.123688035
0000c0 36 4f 3c bd fb 18 c1 3c 7d ea 48 3c 8b 79 9a bd
       -0.04597398 0.023571482 0.012262938 -0.07542714
0000d0 8e a5 ef 3c 20 85 0b 3e e2 a1 87 3b d3 f9 4b 3b
       0.029253747 0.13625002 0.004139171 0.0031124249
0000e0 b6 dc 04 3d 01 0d 03 3c cd 16 aa 3c 50 00 08 be
       0.03243705 0.007998706 0.020762825 -0.13281369
0000f0 57 a5 04 be 86 ef aa 3d 10 34 ee 3c 77 50 d5 bd
       -0.12953697 0.08346467 0.02907756 -0.10415738
000100 8f bb d6 bd ad bb 49 bd 1c ae 90 bd b3 c1 0f 3f
       -0.10484993 -0.049251247 -0.07064459 0.56154937
000110 9a dc 06 be a2 f2 90 3c be d3 88 3b 85 b6 40 3b
       -0.1317009 0.017693821 0.0041756323 0.0029405665
000120 4a cf fa bd c8 2c 53 bd b7 31 eb bc a0 10 4f 3d
       -0.122465685 -0.05155638 -0.02871023 0.050552964
000130 d2 d4 4e 3b c3 72 89 be 6e 8e 7e bd de 46 c7 3b
       0.0031559956 -0.2684537 -0.06214755 0.006081446
000140 c8 f7 95 3c f1 ce 39 3d c3 dd 63 3a 22 fc f7 bc
       0.018306628 0.04536337 0.0008692408 -0.030271593
000150 b8 65 c1 bc 3c c2 8c bd 3e 68 2c bd 7a b0 cb 3e
       -0.023608074 -0.06872985 -0.0420916 0.39783078
000160 e1 ea 39 bd a8 69 e2 ba 5c a3 37 be 34 72 81 3c
       -0.045390014 -0.001727392 -0.1793341 0.015801527
000170 26 d8 c6 3d 3d 0f 16 3f fb 15 cf bd c9 dc 33 bd
       0.09709196 0.58617 -0.10111614 -0.04391173
000180 5b 2a f2 bd d4 10 41 3c db 94 61 bb 12 a5 19 3e
       -0.11824485 0.011783797 -0.0034421 0.15004376
000190 5a 00 fb 3d b6 f3 8c 3c 0e 68 41 bd bc 13 d5 bb
       0.122559264 0.017206054 -0.047218375 -0.0065025967
0001a0 ea b5 d5 bd c7 bc 8f 3c b5 0e 80 3d cc ca d6 3c
       -0.10435088 0.01754607 0.06252805 0.026219748
0001b0 c1 45 12 3e 25 fe 20 3d a1 62 76 bd f2 c2 a1 3e
       0.14284422 0.03930487 -0.060152654 0.31594044
0001c0 9e 52 99 bd 98 ee 35 3c 0f 6e f9 bc c5 d2 0d be
       -0.07486461 0.011104248 -0.030447988 -0.13849933
0001d0 c3 a3 94 3d c6 94 99 bc 2c e4 64 bd bb fa 56 3c
       0.072577976 -0.018747699 -0.055881664 0.013121302
0001e0 97 ee 43 be ca ba c0 3c 3a be c2 3d 37 97 ff 3d
       -0.19133984 0.023526568 0.09508939 0.12480014
0001f0 50 ad 90 bd ec 5d 37 3d 81 bf d6 3d 38 46 86 3d
       -0.07064307 0.044767305 0.10485745 0.06556362
000200 ca e8 4e 3d 4e f7 09 3d 9e 38 b6 3d ea aa 8b bd
       0.050514974 0.033683114 0.088975176 -0.06819709
000210 5f 31 1b 3e 29 45 e3 bd 0e a9 d1 3c 67 ba a6 bd
       0.15155552 -0.11097176 0.025593307 -0.08141022
000220 df 19 16 bd ee af 05 be f9 a4 66 3d d6 fe 1b 3c
       -0.036645766 -0.13055393 0.056309674 0.009521207
000230 9d e6 77 3b ec 52 88 bc 39 d4 58 bd 32 78 8c bd
       0.0037826665 -0.016641103 -0.052936766 -0.06858863
000240 af ba d6 3c 0c d1 9c 3c af 44 27 3d 90 07 fd 3d
       0.026212065 0.01914265 0.040836986 0.12354958
000250 19 2b 2e bd 7b e5 ee 3d 97 9f 91 3b 6a 78 cf b9
       -0.04252157 0.11664864 0.0044440734 -0.00039571832
000260 95 94 1e 3e 0a 9c 88 3e ad 1a e1 3b e1 5f fb 3d
       0.15486367 0.26681548 0.006869635 0.12274147
000270 57 90 75 be 54 6d cb 3c d7 2f f7 3d e6 e5 bb bb
       -0.23980843 0.024832405 0.120696716 -0.005734193
000280 c7 0e a0 3d e5 18 4e bd 64 6c 8b 3c c3 25 0d 3e
       0.078153186 -0.05031671 0.017019458 0.13783936
000290 69 50 91 3e e5 c6 09 bc 7d de 91 3c 54 8f 2d bc
       0.2838166 -0.008409237 0.017806286 -0.010593254
0002a0 d2 75 52 bc 3e 2d 66 bd f9 ad 19 bd 76 de 40 3c
       -0.012845473 -0.05619549 -0.03751943 0.011771789
0002b0 ed 21 cf bd 0c 3f fd 3a 48 2a 31 bd 55 82 37 3e
       -0.10113893 0.0019321158 -0.043253213 0.17920811
0002c0 11 79 73 bc 5e 19 db bc 29 69 29 bc b3 74 c9 3d
       -0.014860407 -0.026745494 -0.010340014 0.09836712
0002d0 cc e0 51 3d 7e c0 b9 3c 98 c8 84 3d ad 52 c4 bc
       0.051239774 0.022674795 0.06483573 -0.023965204
0002e0 1c b6 60 3d de c9 50 3c 55 3d 01 bd 0b 72 5b 3d
       0.054861173 0.012743441 -0.03155263 0.053575557
0002f0 9d 4b 71 3d a1 a2 b4 bd fb 1f b1 bb 90 f1 a3 3e
       0.05891 -0.088200815 -0.0054054237 0.32020235
000300 95 26 73 bd 5a 99 27 bd 66 e8 f9 bd 5a fb 5f 3c
       -0.059362967 -0.04091773 -0.122025296 0.013670767
000310 5d d9 81 bd 5d 76 0b 3e 31 2c 91 bd 6e 87 9f bb
       -0.06340287 0.13619371 -0.07088507 -0.0048684394
000320 0f 1c 87 bc 3c 05 8f 3d 4c 5e 1c bc a4 35 09 3e
       -0.016492872 0.0698342 -0.0095439665 0.13399369
000330 67 21 26 bd 92 a8 98 bc 6a 2e e4 3c 53 7e ce 3d
       -0.0405592 -0.018635068 0.027854163 0.10082688
000340 39 4a 14 bd c9 f2 d3 3b 5d 7e 29 bd 43 b1 d1 bd
       -0.036203597 0.006468151 -0.041380275 -0.10238888
000350 32 75 73 bd 5d 03 d1 bb 26 18 be 3c b3 4e 2b 3d
       -0.059437938 -0.0063785748 0.023204874 0.0418231
000360 3b 59 17 bc dd a4 70 3b 91 6c 0b bc 03 1a ad 3c
       -0.009237583 0.003671936 -0.008509771 0.021130567
000370 48 e0 eb 3b e4 24 50 3c 92 f1 22 bc 5f 7f 6c bd
       0.0071983673 0.012704108 -0.00994529 -0.057738658
000380 3a dc 1c 3d ef b1 d2 3a 9d 85 23 3d 09 6a 7a 3c
       0.038295962 0.0016074757 0.039922345 0.01528407
000390 f3 bd 40 3d c1 97 60 3d 7e 05 48 3c 25 d6 ef ba
       0.04705615 0.054832224 0.012208341 -0.0018298073
0003a0 4b 81 9e 3c c1 e6 71 3c 71 e4 07 bd ca 26 b0 3d
       0.019348761 0.014764489 -0.033176843 0.086011484
0003b0 4a e3 3d bc 88 5c cc 3c a5 eb c4 bc f9 6d 9a bb
       -0.0115898345 0.024946466 -0.024038145 -0.004712817
0003c0 30 45 9a bc 03 a2 c5 39 2e 50 4d bd 4d 68 69 3b
       -0.01883182 0.00037695476 -0.050125293 0.0035615147
0003d0 5f d7 b9 bc b9 db 82 3d df 9a a8 3c 4c bd b7 bc
       -0.022685705 0.06389565 0.02058166 -0.022429131
0003e0 89 fa 94 bc 15 9f 00 bd 01 d1 27 3d c7 a2 68 bd
       -0.01818587 -0.031401712 0.040970806 -0.05679586
0003f0 ac f9 c5 3c 2d 6c 62 be b5 39 6c 3c 49 fc 05 bc
       0.024166904 -0.22111578 0.014418055 -0.008177825

fc_regression.bias f4 [4]
000000 e5 63 af 3c 4d da 89 3d c6 ae 1a 3c bd c7 8c 3d
       0.021409938 0.06731091 0.009441083 0.068740346
