models/lstm/models/trained_lstm_model.pth (torch, 179069 bytes, 7 tensors)

event_embedding.weight f4 [4, 3]
000000 90 63 19 3f 67 3c 59 bf 58 44 29 3f a9 de e7 3e
       0.59917545 -0.8485779 0.6611991 0.45287064
000010 c4 91 af 3e 57 4e 9e be 07 f3 73 3e 0a ca 2d 3f
       0.34290898 -0.30919144 0.23823176 0.6788641
000020 17 5c c2 bd b2 08 9a bd f2 ee 29 bf 2c 39 41 bf
       -0.09490221 -0.0752119 -0.66380227 -0.7547786

lstm.weight_ih_l0 f4 [400, 7]
000000 90 b7 19 bf 76 55 b6 3e 9f 68 06 be 2c 19 79 3e
       -0.6004572 0.35612077 -0.13125847 0.24326009
000010 28 85 6e bd b6 75 69 b9 32 e4 56 be 79 0b 62 3e
       -0.058232456 -0.00022264462 -0.20985487 0.22074689
000020 42 38 a4 3e 23 75 57 3e 9d 95 4c 3e c0 ca 1e 3c
       0.3207417 0.21040778 0.19978948 0.009691894
000030 d3 10 28 3e 96 f2 69 3d 96 c7 bc 3e 9a 2e 00 bf
       0.16412668 0.057116114 0.36871022 -0.5007111
000040 9b 2a 8e 3e 20 23 e2 be 49 4e 99 bb 14 dc 14 3e
       0.2776688 -0.44167423 -0.004678522 0.14537078
000050 59 ef 78 bd 66 a1 59 3d fd 71 0a bf 10 a3 e5 be
       -0.060775135 0.053132437 -0.5408018 -0.4485097
000060 6f 3a 04 bf fc 98 9f bd e8 1c 87 bd 96 7e 2a bd
       -0.5165166 -0.07792851 -0.0659731 -0.041624628
000070 ad 7a 20 be b9 12 fd bc b8 fb 6c bd 2f 48 87 bd
       -0.15671797 -0.030892717 -0.057857245 -0.06605565
000080 25 c1 17 be 4b 85 5b 3e a4 9d 04 be b4 7f 7c be
       -0.14819773 0.21437566 -0.1295076 -0.2465809
000090 a6 fb 2e 3e e6 55 74 be c3 10 20 3e 04 01 6f be
       0.17088184 -0.23860893 0.15631394 -0.23340231
0000a0 b1 82 6c 3e ef a4 a5 be 77 5c 66 3e b2 85 bd 3d
       0.2309673 -0.32352397 0.2249621 0.09254016
0000b0 69 f0 1f be af 72 df bc 56 31 5a be 1a fc 92 3e
       -0.15619053 -0.027276365 -0.21307883 0.28707963
0000c0 a2 c2 1f 3e 95 57 b1 bd c4 f5 78 3e e1 28 51 be
       0.1560159 -0.08659283 0.24312502 -0.2042575
0000d0 1e 28 9c 3e 2b 87 e6 bd 5d 34 14 3c 82 27 99 3b
       0.30499357 -0.1125625 0.0090456875 0.004673899
0000e0 23 4f ac 3e 79 79 f8 3d 50 9f d4 3d 79 18 d1 3c
       0.33654127 0.12132544 0.10381949 0.025524365
0000f0 16 f4 71 be bf 46 d2 3e fe d9 c6 3d 42 e2 a2 3e
       -0.23628268 0.410696 0.097095475 0.31813246
000100 8d 42 bc bd f5 27 cc 3d dd 8b b5 bc f7 72 1b bd
       -0.09192381 0.09968559 -0.022161419 -0.037951436
000110 d0 f4 07 3d dd 99 0c bd 5b 05 02 3e 2a 41 c2 3e
       0.033192456 -0.034326423 0.12697355 0.3794034
000120 a0 46 90 ba 55 5c 5a 3e 9c c1 86 3d 96 1a 94 3c
       -0.0011007376 0.21324284 0.06579897 0.018079083
000130 d0 28 01 3e 99 52 3e 3f d7 bf 95 bd b2 62 a6 3e
       0.12613225 0.74344784 -0.07311981 0.32497174
000140 a1 2e a2 bd ac e0 f6 bd a2 2c 37 3e 75 25 fd bc
       -0.0791905 -0.120545715 0.1788812 -0.03090165
000150 83 18 f8 3e 5f aa 98 3e f4 e2 62 be 83 bb 89 3e
       0.484562 0.29817483 -0.22156888 0.26900873
000160 5c e5 9e 3c 8b 89 af 3d db 05 c1 bd 26 6d 33 be
       0.019396476 0.08571156 -0.09424945 -0.17522106
000170 01 30 81 be 6e f1 f9 3d 28 f1 b0 be 4c d0 8a be
       -0.25231937 0.12204252 -0.34558988 -0.27112043
000180 b1 07 85 3e ae e1 de be 9a 68 90 bc d8 84 56 3d
       0.2598243 -0.43531555 -0.017628003 0.052372783
000190 26 01 21 be 9d d7 6d 3e 3c 71 18 be b1 5c 52 3e
       -0.15723094 0.23226781 -0.14886945 0.20543171
0001a0 45 77 9d bd 0f ef d2 3e 20 b2 02 3e 18 b8 a6 3d
       -0.076887645 0.41198012 0.12763262 0.08140582
0001b0 3c 71 80 3e d7 b0 69 3d b3 44 76 bd 7a 1f a8 3d
       0.2508639 0.057053413 -0.06012411 0.08209129
0001c0 14 44 01 be e7 1c 9d be 50 30 11 3e fa 55 29 be
       -0.12623626 -0.30686113 0.14178586 -0.16536704
0001d0 25 a6 33 be 5b 03 37 3e 1a 95 15 bd 9e ed 07 be
       -0.17543848 0.17872374 -0.036519147 -0.13274238
0001e0 02 d7 28 bf 7f 70 15 bc 5c 07 2e bf 82 91 11 be
       -0.65953076 -0.009121059 -0.6797998 -0.14215663
0001f0 02 75 a2 3b 5d 53 82 3c 2f b8 0c 3e 0d 6a ba bd
       0.004957796 0.015908891 0.13742135 -0.09102259
000200 95 1d 37 3e 3d 70 45 3b 82 f4 a0 be 26 bc 9d 3e
       0.17882378 0.0030126714 -0.31436545 0.30807608
000210 3c 8e d9 bd 8c 90 d1 3e 79 c6 af 3e 3d 9a 39 bd
       -0.10622832 0.40930593 0.3433111 -0.04531311
000220 71 68 b4 3e c7 e1 ce 3d 0d 46 40 bd c0 a2 72 3e
       0.35235932 0.10101657 -0.046941806 0.23694897
000230 94 3a da be f5 66 39 3e a2 8e 6c be be 15 89 3e
       -0.42622817 0.18105681 -0.23101285 0.267744
000240 fc 74 0f be 26 8a d5 3d 00 7c 2a be dc dc e9 be
       -0.1400947 0.1042674 -0.16648865 -0.45676315
000250 16 a5 d8 3d 25 0d 5b 3e f7 80 e6 3d 46 e8 bb bd
       0.10578363 0.21391733 0.11255067 -0.09175162
000260 6b 34 e9 bc bf ca 95 bd e8 30 8a bb bb 0c a7 3d
       -0.028467378 -0.073140614 -0.004217256 0.08156725
000270 c8 a4 3f be d2 5b 98 3d 19 c7 64 be 3f 63 bc 3e
       -0.18715203 0.07439388 -0.22341575 0.3679447
000280 3f 64 1b bd 5e bf ae 3c a5 a6 1c 3e f3 28 37 be
       -0.0379374 0.021331485 0.15297945 -0.17886715
000290 3b be 98 3e 21 92 23 bc e6 c0 20 bd eb 01 25 3d
       0.29832634 -0.00998357 -0.039246462 0.040285032
0002a0 98 6d 68 be 4b 4a cc be 4b 6c 00 be c6 38 99 be
       -0.22698057 -0.3990043 -0.1254131 -0.29926127
0002b0 92 a9 51 be 36 fd 27 3e 84 72 ea be bc 62 a8 be
       -0.20474842 0.16405186 -0.45790493 -0.32887828
0002c0 17 3a 9c bf 0a 9a eb be f7 c8 95 bf 25 c2 c8 bd
       -1.2205228 -0.4601596 -1.1701955 -0.09802655
0002d0 16 ba 65 3e 38 96 e3 3d 8d 48 ae be 25 46 de 3d
       0.22434267 0.11112636 -0.34039727 0.10853223
0002e0 5c 1a fd bc 7a e3 4d 3e 30 b9 10 be d8 3d 80 3e
       -0.030896358 0.20106307 -0.14133143 0.25047183
0002f0 cd 0d 1a be bf ca 18 3f 0f aa 8c 3e e2 54 86 3e
       -0.15044327 0.59684366 0.27473494 0.26236635
000300 84 d8 6e 3e 3a 58 8d be dd 44 a5 3e a8 f4 a1 bd
       0.23324782 -0.27606374 0.322791 -0.079079926
000310 d2 a7 1a be e1 26 0d 3e 5d c8 09 3d 94 12 88 3d
       -0.15103081 0.13784362 0.033638347 0.066441685
000320 90 5e 4a bd ed bf 4c 3d c5 2b 45 3d b3 af c4 be
       -0.049406588 0.049987722 0.048137445 -0.38415298
000330 37 ab e5 3d a1 5a a9 be 25 51 c0 3d 32 de 56 be
       0.11214297 -0.33076957 0.09390477 -0.20983198
000340 ee 9e 3f 3e 78 96 c7 bd 47 d9 68 be c7 eb a4 3e
       0.1871297 -0.097454965 -0.22739135 0.32211134
000350 a7 35 3f 3e 6b 97 9f 3e ee d0 06 bd a6 38 8a bd
       0.1867281 0.3117021 -0.032914095 -0.06749086
000360 80 16 b0 3c 6f 1f a2 be 22 d0 7b bd 69 a2 ac 3e
       0.021495104 -0.31664607 -0.061477788 0.3371766
000370 77 47 b1 bb 3f 41 eb bc f3 f7 70 3e f3 a9 5e be
       -0.0054101306 -0.028717635 0.23532085 -0.21744518
000380 7b 3f 04 bf 85 47 c3 bd 7e aa 9a be 8a 9f 2c bc
       -0.51659364 -0.09535126 -0.302082 -0.010536084
000390 95 8e a5 be b0 a9 b3 3e 7d 70 06 be 8a d1 4d be
       -0.32335344 0.350904 -0.13128848 -0.20099464
0003a0 b9 5b 1e be 2e c2 73 be 9c d3 18 be 54 01 03 3e
       -0.15464677 -0.23804542 -0.14924473 0.12793475
0003b0 21 50 2c bd 47 3c 97 3d 81 9c e2 bd b9 59 b1 3d
       -0.042068604 0.07384544 -0.11065007 0.08659691
0003c0 4e f8 75 be c2 3d 64 3d 6d e0 24 be b2 a8 1c 3d
       -0.24020502 0.05572296 -0.16101237 0.038246818
0003d0 13 23 1c be ef 16 2e be bc b4 01 be 4b fb 0f 3c
       -0.15247755 -0.17000936 -0.12666601 0.00878794
0003e0 51 5c 01 3c b9 d8 85 be 57 8b 74 3e db 10 58 be
       0.007895545 -0.2614191 0.23881279 -0.2110018
0003f0 a5 6c 88 3e e8 e2 44 3e 38 bd 30 3d bd 45 5c 3e
       0.2664539 0.19227183 0.043149203 0.21510978

lstm.weight_hh_l0 f4 [400, 100]
000000 dc 1f 08 be 6c 50 19 3e 55 f9 56 3e fc 23 4d 3f
       -0.13293403 0.14972085 0.2099355 0.8013303
000010 88 22 f3 be 8c 8a db 3d de 13 dc bd 71 9f 97 be
       -0.47487283 0.10719785 -0.10745977 -0.29613832
000020 a9 c3 80 bd 24 6a 2a bf f6 8c 75 bd 7e 1b 47 be
       -0.06287319 -0.6656821 -0.059948884 -0.19444081
000030 89 e3 80 be 2f 67 f0 be e8 e7 a5 3e ea 62 b3 be
       -0.25173596 -0.46953723 0.32403493 -0.35036403
000040 8f b5 15 be b2 0c 17 bf 60 c8 ca bd 3d 51 16 bf
       -0.1462004 -0.59003747 -0.099015 -0.5871771
000050 b0 9b 99 3e f1 fc 57 bd 76 db f0 bd 3b 67 03 3f
       0.30001593 -0.052731458 -0.11760609 0.5132939
000060 77 57 1e 3d cb 37 ea be 3b 73 6f 3d a8 ab 7b 3e
       0.03865763 -0.45745692 0.0584595 0.245772
000070 0d 7c 0d be 19 bd a8 3b c0 51 89 3e 63 c3 38 3e
       -0.13816853 0.0051494953 0.26820183 0.18043284
000080 32 bf 99 3d 35 a5 c7 be 53 e5 84 bd 60 99 8b 3e
       0.07507171 -0.3899323 -0.064890526 0.27265453
000090 e1 01 c9 3d 99 db a1 3e e2 f3 05 bf 8b 4a de 3e
       0.098148115 0.31612852 -0.5232526 0.43416247
0000a0 ba fd 0e 3e 37 23 6c 3e ff da 48 be 80 06 81 be
       0.13963977 0.23060308 -0.1961479 -0.25200272
0000b0 27 b1 06 3f ae 8f 9d 3d a8 ac b8 3e 93 bd 3c 3e
       0.52614063 0.0769342 0.36069226 0.18431692
0000c0 93 e4 03 3f 4d a7 9f 3d 38 04 10 be be 46 92 3e
       0.5152065 0.07795582 -0.1406411 0.28569597
0000d0 bd 1a 6d be 10 cb 0b 3f 8d af 65 3d db fb 0a bf
       -0.23154731 0.54606724 0.05607562 -0.5429055
0000e0 f9 ca 5c 3d 07 67 e2 3c 05 dc c2 3e b7 ab bc 3e
       0.053904507 0.027637018 0.38058487 0.36849758
0000f0 e0 3c c1 3c f9 a6 1c 3e 54 42 b9 be 33 c2 44 3e
       0.023588598 0.1529807 -0.36183417 0.19214706
000100 0a 99 5d be 27 d7 33 bf 36 64 60 3d 87 ac 88 bd
       -0.21640411 -0.7025017 0.05478307 -0.06673532
000110 c4 28 bd bd 1f 82 19 3f e7 93 23 be 9f 9b 20 be
       -0.09236291 0.59964174 -0.15974389 -0.15684365
000120 4c ac a7 3d 30 2d b1 be 61 a5 b5 3d 76 be ed bd
       0.0818716 -0.34604788 0.08869434 -0.11608593
000130 e7 ec c2 3e d2 0b cc bd 92 55 bc 3e 0e 0e 8e be
       0.38071367 -0.09963192 0.36784035 -0.27745098
000140 c7 1a 32 bd c8 1a 4c bf d9 05 52 bc da 8f 42 3e
       -0.043482568 -0.79728365 -0.012818777 0.19000188
000150 5a 15 da be 5f 69 43 3e 24 38 1b bd d2 d6 c5 3e
       -0.42594415 0.19083165 -0.037895337 0.38640457
000160 bf ff 7d be 85 26 cd 3e 4f d5 57 3e 34 c5 a3 3e
       -0.2480459 0.4006845 0.21077465 0.31986392
000170 56 07 1d bd e4 6c 94 bd df f0 21 bf 45 9d c2 3e
       -0.038337074 -0.07247332 -0.63258165 0.38010612
000180 5a cc 4f 3e 23 4c e8 be 20 c3 ad be bb 2d 65 be
       0.20292798 -0.45370588 -0.3393793 -0.22380726
000190 9a 73 68 bc a4 8b 9f bd 92 d9 02 be 74 c3 cd 3e
       -0.014187718 -0.07790306 -0.12778309 0.4018818
0001a0 a2 49 22 be 40 30 32 3e e1 67 3f bc ab 57 c1 3d
       -0.15848401 0.17401218 -0.0116824815 0.094405495
0001b0 a7 bd c7 3d 67 b0 ad bd d6 5e df bd 05 93 a4 bd
       0.0975297 -0.08480912 -0.109067604 -0.08035854
0001c0 8b 81 37 3d d3 b1 43 be 11 e9 f7 3d 1a 54 d8 bd
       0.044801276 -0.19110803 0.12105001 -0.10562916
0001d0 49 c5 6f 3d 78 be 59 be 9e 74 2b 3e 7b 59 31 bd
       0.058537755 -0.21264064 0.16743705 -0.043298226
0001e0 66 b1 02 3e 20 0a 0d be 83 66 63 3d 70 b6 e6 bc
       0.12762985 -0.13773394 0.055517685 -0.028163165
0001f0 44 d6 62 3c 03 e0 50 be 65 1c 52 bd ff 52 1a 3e
       0.01384503 -0.20397954 -0.05129661 0.15070723
000200 52 2c b4 3b ba 11 cd 3d eb b8 ea 3d 98 64 80 be
       0.0054984475 0.10013147 0.114610516 -0.25076747
000210 30 7b 4c bd 37 ef 5e bd 0c d7 1a be 6a cb 70 3d
       -0.04992217 -0.05442735 -0.15121096 0.05878774
000220 fe d2 1e bd 86 ae 37 bd ea 62 84 be 41 97 89 3e
       -0.038775437 -0.044844173 -0.25856715 0.2687321
000230 2c dd 2d 3e ce 7f f1 bd 86 60 4a be 5a 29 d3 bd
       0.16978902 -0.11791955 -0.19763383 -0.103106216
000240 1b 26 81 3e 8d d0 ab bd c7 6c b0 3e 41 f6 54 3e
       0.25224385 -0.08389387 0.3445799 0.20797063
000250 da c1 78 3e c9 ad f4 3d f2 83 a7 3c 73 f0 98 bd
       0.24292699 0.119472094 0.020448659 -0.07467737
000260 3b a4 76 be f4 d4 91 3e 1e 26 6f 3d d9 50 4c be
       -0.24086086 0.28482783 0.05838596 -0.19952716
000270 4f 01 f4 be b6 46 2f be 86 30 c8 bc 9c 44 7a bd
       -0.47657248 -0.17116818 -0.0244372 -0.061100587
000280 77 40 32 3d 3e e2 47 3e a6 a1 57 be 2d 66 00 3e
       0.04351851 0.19519898 -0.21057758 0.12538977
000290 e7 c2 c7 bd 81 ee e7 be 2f 9c 44 3d 5c a9 51 be
       -0.097539715 -0.45299152 0.04800051 -0.20474762
0002a0 f0 a3 03 3e a1 2f 9b 3e be 23 46 bd ae 9d 07 bd
       0.12855506 0.30309775 -0.04837393 -0.03310936
0002b0 5b d2 2e be 43 ef fd bd 5a b9 5e 3d 5a e4 07 3e
       -0.17072432 -0.12399151 0.054375984 0.13270703
0002c0 ca db 75 3e 1a ee 43 be d9 bb a6 3d 84 14 0c be
       0.24009624 -0.19133797 0.08141298 -0.13679701
0002d0 06 95 0a 3d eb ed a8 be a6 c6 d8 bd 9c 9f e8 3d
       0.033833526 -0.32994017 -0.10584764 0.11358568
0002e0 3a 70 c0 bc 9d 5c 36 bc 69 da 54 be 3f 63 06 be
       -0.023491014 -0.011130479 -0.20786442 -0.13123797
0002f0 c5 ed 2c 3d 6b 91 04 3d 74 e3 49 be 76 e8 45 3d
       0.042218942 0.032365244 -0.19715673 0.048317395
000300 e8 fb d9 bd 1f 96 51 be 42 ca 08 be 4c bb 00 bd
       -0.106437504 -0.20467423 -0.13358405 -0.03142862
000310 b9 51 72 3b 86 bc df bd 64 3d 39 bd 42 f3 81 3d
       0.003697498 -0.1092463 -0.045224562 0.06345226
000320 40 54 fc 3d 7a 0f 35 bc d3 37 9f bc af 4f 16 3f
       0.12320757 -0.011051053 -0.019435799 0.5871534
000330 bf ec bf 3b 69 45 74 3d 0e 12 6c bd e1 f7 94 3e
       0.0058570798 0.059636507 -0.057634406 0.29095367
000340 3a 66 0e 3d bd 47 e5 bd 0c 35 86 be 59 03 e8 3d
       0.03476546 -0.111953236 -0.26212347 0.113287635
000350 12 fb f4 bd 61 b3 2b be 2c 9b 64 be de d6 61 be
       -0.1196195 -0.16767646 -0.22324818 -0.22054622
000360 e1 05 03 be 54 74 8f be 4a 62 4a bc 0d a2 ad bc
       -0.12795211 -0.2801844 -0.0123525355 -0.021195436
000370 c2 2c d3 bc 95 6a 08 bd 6b b2 0a 3d 84 b3 16 3c
       -0.025778178 -0.03330477 0.03386156 0.009198073
000380 a8 0d 9c 3d a6 1a b4 be a7 36 0f bd 6c 9a b3 bd
       0.07619792 -0.3517658 -0.03496423 -0.08769688
000390 b9 d3 e2 bd 8e 77 17 be ec d4 1e 3e 20 12 62 be
       -0.11075539 -0.147917 0.15510911 -0.22077227
0003a0 9e ab 19 bd 67 69 1e be 76 8f 44 bd 1e 29 0d bd
       -0.037517183 -0.15469895 -0.047988378 -0.03446304
0003b0 47 a4 fd bd 87 54 86 3d 50 98 ba be ef eb 26 3e
       -0.12384849 0.06559091 -0.3644433 0.16300939
0003c0 86 b7 23 3e 58 ec 11 be da d4 42 be 95 21 e9 bc
       0.15987977 -0.14250314 -0.19026509 -0.028458396
0003d0 75 cc 7e 3e b0 f1 3c be cf 4f b7 3e f7 e6 6a bd
       0.24882682 -0.18451571 0.35803077 -0.05734917
0003e0 cd a7 31 3d e6 45 80 bd fe 4e 70 bc 2b 9e 92 bd
       0.043372918 -0.06263332 -0.014667271 -0.071590744
0003f0 ec 9c 37 be 3b 1d 30 3e 11 47 db 3d 8a 8e 2d 3c
       -0.17930955 0.1719865 0.10706914 0.010593066

lstm.bias_ih_l0 f4 [400]
000000 a0 c2 9f bd ef 6a 49 be 4c f4 ba 3b 86 e8 6b 3d
       -0.07800794 -0.19669698 0.005705392 0.0575948
000010 60 ba 14 be 48 73 a4 be b4 ab a7 be 3f 2f 65 bd
       -0.14524221 -0.32119203 -0.32748187 -0.05595326
000020 03 09 b8 be c9 de 65 bd 9b 13 1d be 66 f3 2f be
       -0.35944375 -0.056120668 -0.1533951 -0.17182693
000030 a7 dc 97 3c af cf 77 be 54 d9 69 be f9 b2 19 3e
       0.018537832 -0.24200319 -0.2283681 0.15009679
000040 51 9b 23 be 5c 69 01 be 9b a7 32 be 29 a6 05 bd
       -0.15977217 -0.12637848 -0.17446749 -0.032629166
000050 c7 95 9b bd e5 86 16 3d ca 61 96 be 50 4d 3b 3d
       -0.07596927 0.03674974 -0.29371482 0.045728028
000060 fd 13 45 be 14 5b 43 be 82 67 91 be 82 06 3a be
       -0.19245906 -0.19077712 -0.28399283 -0.18166545
000070 46 ed 82 be 92 4f 45 be da cb 2f 3d 2a 71 b6 bd
       -0.2557165 -0.19268635 0.042919017 -0.08908303
000080 53 ea c4 be 4a d3 a0 bd e5 75 0c be 2b 15 aa be
       -0.38460025 -0.078528 -0.13716848 -0.33219275
000090 43 27 92 bc 3c 93 11 3d a2 4e e4 3b 66 99 25 be
       -0.017840987 0.035540804 0.0069673816 -0.16171798
0000a0 3f 6b 5f be 8f a6 e1 bd 3f b8 06 3e 8b 7e e8 3c
       -0.21818255 -0.11018097 0.13156222 0.028380653
0000b0 50 11 b2 bb 00 aa ae bb 89 1b c7 bd 5a 5a 90 be
       -0.0054341927 -0.005330324 -0.09722049 -0.28193933
0000c0 87 55 1a be d7 32 21 be f0 98 4a be 6e d7 88 bd
       -0.15071689 -0.1574205 -0.19784904 -0.06681715
0000d0 4a 23 29 3e f3 de 14 bd 36 2f a3 ba 63 87 89 bd
       0.16517368 -0.036345433 -0.0012449983 -0.06715276
0000e0 75 4c 0d 3e 3d c8 03 be 8d 26 38 bd 58 d6 ce bd
       0.13798697 -0.12869354 -0.04495864 -0.100994766
0000f0 7a 71 85 be c2 f7 36 be f6 43 a9 39 b9 c5 f7 be
       -0.26063138 -0.1786795 0.00032284827 -0.48393038
000100 40 9e 32 bd 1a 93 a3 3d 81 9a c6 be 44 86 97 bd
       -0.04360795 0.07987042 -0.38789752 -0.07398656
000110 cf 91 1b be fa 64 f1 bd 92 f3 3d be a8 4f 81 be
       -0.1519234 -0.11786838 -0.18549946 -0.25256085
000120 f0 2c 18 be d8 0c 93 3e 4d 50 f1 bd 87 b0 ab be
       -0.14860892 0.28720737 -0.11782894 -0.33533117
000130 86 b2 0f be 23 c4 c6 be 5d a0 68 be 09 3b 9b be
       -0.14032945 -0.38821515 -0.22717424 -0.30318478
000140 02 88 ab bd 68 8d a7 bc 43 11 ae be 77 22 a7 bd
       -0.08375551 -0.02045317 -0.33997545 -0.081608705
000150 27 61 31 bd a8 6f c5 bc 0b ba 39 be a0 7d 54 be
       -0.043305542 -0.024101093 -0.18137376 -0.20751047
000160 05 da d2 be f4 b7 3b be a4 49 f5 bc 00 2f 41 be
       -0.4118196 -0.18331891 -0.029942341 -0.18865585
000170 b7 9e 20 be ef 0c 50 be 56 a9 36 be 63 16 05 be
       -0.15685545 -0.20317434 -0.17838034 -0.12996821
000180 6b 85 1a be 82 5f 3a be 9b b6 3f bb d9 09 54 be
       -0.15089957 -0.18200496 -0.0029253128 -0.20706882
000190 ff c1 b5 3d 53 fb 4c be 45 d5 bb 3c 32 94 f5 3d
       0.088748924 -0.20017748 0.022928843 0.11991157
0001a0 6e c3 20 be 82 78 44 be 4b f4 3a be 86 90 2a 3d
       -0.1569955 -0.19186595 -0.18257253 0.041641735
0001b0 27 90 d5 be ed 9d da 3d 0c cc 16 be 34 06 40 bc
       -0.41711542 0.10674653 -0.14726275 -0.011720229
0001c0 1f 96 4f 3d ba 43 86 be d7 c8 e3 bd 01 76 e6 bd
       0.050680276 -0.26223546 -0.111222915 -0.11252976
0001d0 46 b8 f8 bd 27 24 01 be 5c 42 47 be fc 72 ad bd
       -0.12144522 -0.12611447 -0.19458908 -0.08469197
0001e0 3f 51 91 bd a2 f9 cc 3d 81 99 ff bd 8a 79 4d 3e
       -0.070955746 0.10008551 -0.124804504 0.20065895
0001f0 5d 81 95 bd 5f e7 23 be 4a 5d 47 be a3 7d 06 be
       -0.07300065 -0.1600623 -0.1946918 -0.13133864
000200 67 72 a3 be a1 27 4d be 49 8a a3 3d 13 f4 a3 bb
       -0.3192322 -0.20034648 0.0798536 -0.005003461
000210 77 55 36 be 5b dc b3 bd 38 f5 3b be f1 db da be
       -0.1780604 -0.08782264 -0.18355262 -0.42745927
000220 5d 76 f2 bc 6c 2f 9e 3c c9 c4 f0 3c ea 10 07 bd
       -0.029597456 0.019309722 0.02939071 -0.032975115
000230 cb 1a 13 be 61 93 a7 bc 33 23 bb be 2a b1 cf bd
       -0.1436569 -0.020456018 -0.36550292 -0.10141213
000240 c0 a0 44 3e 48 d8 b3 bc 94 a6 9f 3d b4 1d f2 bd
       0.19201946 -0.021953717 0.07795444 -0.11822072
000250 d2 86 df bd cf 52 37 be 29 27 04 bf c3 ae 49 3d
       -0.10914387 -0.17902683 -0.51622254 0.04923893
000260 f9 44 7e be 76 66 46 3d 8a 8b 69 bc 38 e1 43 be
       -0.24830998 0.048437558 -0.01425446 -0.19128883
000270 9c 91 22 3e 0e 63 de be 51 80 8f 3d ff 81 8b be
       0.15875858 -0.43434948 0.07006896 -0.27247617
000280 92 b2 f6 bc f1 e0 96 be 70 50 30 3e 32 6e aa be
       -0.030114446 -0.29468492 0.17218184 -0.33287197
000290 41 67 e5 bd ee 17 2c 3d 59 b2 9d be 05 44 44 3e
       -0.11201335 0.04201501 -0.3080013 0.19166572
0002a0 0c 10 6b be 28 c0 cd bd 92 f1 75 be e3 72 e5 be
       -0.2295534 -0.100464165 -0.24017933 -0.44814214
0002b0 99 14 8d bd 7d aa 37 3e 62 40 38 be 41 cf 57 be
       -0.06888694 0.1793613 -0.1799331 -0.21075155
0002c0 63 fb 7f 3d de b5 67 be 70 dc 58 be 69 f9 6d be
       0.0624956 -0.2262797 -0.2117784 -0.23239674
0002d0 c4 f6 cd bd 44 7b e0 bd 11 36 4a be 75 cc 3c be
       -0.100568324 -0.10961011 -0.19747187 -0.18437369
0002e0 f6 a2 69 3d f1 fc 67 be 3d ab 05 be 5f 78 8e be
       0.057040177 -0.22655083 -0.13053603 -0.2782621
0002f0 dd 60 6e be 52 aa 85 bd 18 2a 58 be d2 2b 03 be
       -0.23279138 -0.06526627 -0.21109807 -0.12809685
000300 44 c1 5b bd 54 44 47 be 4a bb 1c be 19 e2 2b be
       -0.05365111 -0.19459659 -0.1530582 -0.16785468
000310 5b 95 8f be 26 b4 fa bd 46 d3 6f be b4 84 3c be
       -0.28043637 -0.12241392 -0.23420438 -0.18409997
000320 e3 0a 6f 3d 64 b1 7c 3c 5b cb 17 3d bf 0c 3b 3d
       0.05835999 0.015423153 0.03705917 0.045666452
000330 04 9f bc 3c 32 9b 5d 3c 2e ba cd 3c 8f 88 2b 3d
       0.023025043 0.013525771 0.025113191 0.04187828
000340 98 f8 27 bc 37 7e 86 bd f0 4d eb bd 34 f3 6c 3c
       -0.01025214 -0.06567042 -0.11489475 0.014462281
000350 8c 1e 27 bd 53 14 15 bd 23 a3 d3 bc 52 10 89 3d
       -0.040800616 -0.036396336 -0.025834626 0.06692566
000360 30 6b 24 3b bf 54 ab bc fa ad 46 bd b9 a2 58 bd
       0.0025088303 -0.020914434 -0.04850576 -0.05288956
000370 97 db 36 bd 14 01 83 bc ff 42 e3 3c ec 6d 1b bd
       -0.04464301 -0.015991725 0.027741907 -0.037946627
000380 f2 ac 00 bd 92 3e 9c 3d b6 f1 47 3b 52 80 32 bd
       -0.031414934 0.07629122 0.0030509061 -0.043579407
000390 cb 96 6d 3c 59 6a 69 3c 73 0d 56 3d bd 9a d4 3b
       0.014501284 0.014246547 0.05225892 0.006488173
0003a0 e7 f5 f8 3c ba 02 fe 3c 8b 84 a7 b9 72 db ce bc
       0.030390693 0.03100716 -0.00031951474 -0.025251124
0003b0 0b 4a 96 ba 58 38 ed bb 77 1e 07 bb cf f1 24 3c
       -0.0011466158 -0.0072393827 -0.0020617524 0.010067417
0003c0 9d 4d 74 bb c1 50 82 3c f0 8a 21 3c 00 d2 8b bd
       -0.0037277706 0.015907647 0.009859785 -0.06827164
0003d0 25 66 f3 bc 4e d4 97 bd 1b 83 ad 3d 20 38 58 bd
       -0.029711792 -0.07413541 0.08472272 -0.0527879
0003e0 3b 53 19 bd 52 90 bb bd 38 72 bc bd af 95 83 bd
       -0.03743289 -0.09158386 -0.09201473 -0.06425034
0003f0 8f 3e 0e 3a a2 40 93 bd 1a 51 32 bc 10 42 70 3d
       0.0005426192 -0.07190062 -0.010883594 0.058656752

lstm.bias_hh_l0 f4 [400]
000000 4a 96 3d bd 60 8b fe bd b2 39 64 3d 7c d6 95 bd
       -0.046285905 -0.124289274 0.055719085 -0.073163
000010 64 57 73 be e7 09 a0 be 6a 4a 7c be 6d 99 b5 bd
       -0.23763806 -0.31257555 -0.24637762 -0.08867154
000020 b4 6a c3 be f6 54 c2 bd a7 1a 8d bd 15 a5 19 be
       -0.38167346 -0.09488861 -0.06889849 -0.1500438
000030 94 82 25 bd 04 c6 00 be 0f 93 8a be c6 8f 16 bd
       -0.040407732 -0.12575537 -0.27065322 -0.036758207
000040 83 f1 4f be 5c 66 0d be b4 49 96 be e0 af 86 3d
       -0.20306973 -0.13808578 -0.29353106 0.06576514
000050 83 04 a1 bd 3c 56 89 bd ba 7a 52 be 9e 7e 8a bd
       -0.07862189 -0.06705901 -0.20554629 -0.067624316
000060 1e 16 3e be a5 40 0f bd c4 81 1a be b9 f8 28 be
       -0.18563125 -0.03497376 -0.15088564 -0.1650113
000070 90 a7 6b be 5e a0 f2 bd f1 09 0e be 26 94 66 bd
       -0.23013139 -0.11846994 -0.1387098 -0.05629363
000080 92 c5 5d be a9 f0 5d bd 0d 02 be bd 41 c6 6f be
       -0.21657398 -0.05418459 -0.09277735 -0.23415472
000090 79 0c a0 bb 1a e8 03 3d 11 5a 24 bd a3 4f 70 be
       -0.0048842994 0.03220377 -0.040124957 -0.23467879
0000a0 96 ba 66 bd ff 86 20 bd 55 05 43 3e 3a 45 2b be
       -0.056330286 -0.039191242 0.19045003 -0.16725627
0000b0 f5 43 1a 3e 81 bd c2 bc 88 0c 6c be 2c da 8c be
       0.15064986 -0.023772003 -0.23051655 -0.27510202
0000c0 17 5b 30 be 9d 2d 2c be 07 c4 27 be 67 e9 d3 bd
       -0.17222248 -0.16814275 -0.16383372 -0.10347252
0000d0 ed 33 f5 3d aa 24 7f bd de 5a a5 bd c4 30 38 be
       0.11972795 -0.062290825 -0.08073972 -0.17987353
0000e0 f8 7f 0d 3e b5 17 b0 bd 05 76 a0 bd 3c c3 03 be
       0.13818347 -0.08598272 -0.078350104 -0.12867445
0000f0 e3 97 3d be 43 aa 41 be 58 c5 10 bd f0 39 c4 be
       -0.18514971 -0.18912606 -0.03534445 -0.38325453
000100 86 3a f6 bd f2 2f 01 3b 0a 3f a2 be 94 ca a1 3d
       -0.12022881 0.0019712416 -0.3168872 0.07899967
000110 32 16 00 be 91 8c 48 be 49 44 df bd 59 3c f7 bd
       -0.12508467 -0.19584872 -0.10901696 -0.12072057
000120 33 eb cc bd e8 d6 b9 3d d1 b1 f7 bd 5c 23 64 be
       -0.10005798 0.09074193 -0.12094463 -0.22279114
000130 47 98 d7 3c 92 56 09 bf 6a 63 c4 bd 4e 87 69 be
       0.026317729 -0.5364772 -0.09589274 -0.22805521
000140 7c 6c 80 be 4b f0 e9 bb 3e 53 d5 be d0 f8 57 be
       -0.25082767 -0.007139241 -0.4166507 -0.21091008
000150 05 71 02 bd 22 c6 03 3c c3 76 f5 bd f1 44 6a be
       -0.031846065 0.008042844 -0.119855426 -0.22877862
000160 87 16 ba be 2a 9e 81 be 04 34 1a be 16 56 1c be
       -0.36345312 -0.25315982 -0.15058905 -0.15267214
000170 ab 77 23 be 62 fd db bd e0 de bf bd 0a f0 24 be
       -0.15963618 -0.10741688 -0.09368682 -0.16107193
000180 f6 52 cb bd 75 21 df bd f8 34 d9 bc d4 25 6d be
       -0.09927933 -0.10895053 -0.026514515 -0.23158962
000190 e9 32 21 bc a8 e8 f5 bd 8b fa 05 3d ca 99 a8 bc
       -0.009838798 -0.12007266 0.03270964 -0.020581145
0001a0 fa 46 fe bd 0c 42 88 be f6 b5 3d be 2d a1 90 3d
       -0.124158815 -0.2661289 -0.18526444 0.07061992
0001b0 79 0c 7f be 7f 7a 1e 3d 2b c7 00 be 95 b0 29 be
       -0.24907102 0.03869104 -0.12575977 -0.16571267
0001c0 07 4e 69 3d d5 e9 19 be 9a cb 22 be 3a 5d 19 bd
       0.05695918 -0.15030606 -0.1589798 -0.037442423
0001d0 e1 70 59 be bf 0f 2b be 43 5b 81 be 73 c9 1f be
       -0.21234466 -0.16705225 -0.2526494 -0.1560419
0001e0 a2 7f a2 3c d7 e5 4c 3d 05 16 a3 bd 07 88 e3 3d
       0.01983625 0.05002388 -0.07963184 0.111099295
0001f0 b7 3b 2d be d8 91 b5 bc 9e 10 3c be 24 c9 e7 bd
       -0.1691731 -0.02216427 -0.18365714 -0.113176614
000200 8f 79 73 be 12 3f 47 be 7a 4a f2 bb e5 de 49 3d
       -0.2377684 -0.19457653 -0.007394132 0.049284834
000210 19 f5 91 be a8 c1 ee bd 5b 67 9d bd 5e 3e c6 be
       -0.28507307 -0.11658031 -0.07685729 -0.38719457
000220 78 ed eb bd 48 7e ad 3c 02 6f f9 3c 1f ed b2 bd
       -0.11519903 0.02117838 0.03044844 -0.087366335
000230 4f f7 5b be a9 c9 a9 bd c0 4e b7 be 10 68 91 3d
       -0.2148106 -0.08290417 -0.3580227 0.070999265
000240 66 c1 67 3e e5 c4 14 3e 63 51 e5 3c 46 d0 8e bd
       0.2263237 0.14528234 0.02799291 -0.06973319
000250 5d 26 cb 3b 07 32 9d be 6c 58 df be 25 86 ea 3d
       0.0061996416 -0.3070223 -0.43622148 0.11451367
000260 ab f6 39 be 81 e7 14 bd 7f f0 83 bd f4 35 5b be
       -0.18160503 -0.03635359 -0.06442355 -0.214073
000270 5a 14 59 3e 9a be c6 be b7 ca 84 3c 91 5d 52 be
       0.2119917 -0.38817292 0.016209943 -0.20543505
000280 ec 43 0c bd 9a e6 9a be b4 5a 3f 3e a1 02 9b be
       -0.034244463 -0.3025406 0.18686944 -0.30275443
000290 9b ea f3 bd ea df a1 3c c0 11 97 be 39 36 d8 3d
       -0.11909982 0.01976009 -0.2950573 0.10557217
0002a0 02 81 4b bd b1 03 a7 bc 9f 45 6d be 9b 8b bc be
       -0.04968358 -0.020387502 -0.2317109 -0.3682526
0002b0 94 d7 c6 bc 35 6e 3c 3e 2d 0d 4f be 38 a8 3f be
       -0.024272718 0.18401416 -0.2021987 -0.18716514
0002c0 a2 21 3f 3d 61 ac a8 be 29 c2 fe bd 72 58 0d be
       0.046662934 -0.32944015 -0.12439377 -0.1380327
0002d0 39 bb 45 be 0e 13 0c 3d be 27 96 be dd 6c 61 be
       -0.19309701 0.03419786 -0.29327196 -0.22014184
0002e0 ec 75 d4 3c 3a 0a 92 be 53 c5 fa bc c3 f3 1a be
       0.025935136 -0.28523427 -0.03061167 -0.1513205
0002f0 9c 8c 9a be da 9b 6d be a9 21 92 be b1 5f cb 3c
       -0.301854 -0.23203984 -0.28541306 0.024825903
000300 84 46 8a 3c e2 b0 50 be da 9d b1 bd c7 b8 cd bd
       0.016879328 -0.20379975 -0.08672686 -0.10045009
000310 85 89 3a be fc 81 6a be c0 f2 95 be 54 80 12 be
       -0.18216522 -0.22901148 -0.29286766 -0.14306766
000320 3f 63 fa 3c ef 4f 59 bb bc de 4b bd 40 52 0b bd
       0.030564902 -0.0033159216 -0.049772963 -0.034013987
000330 c5 10 a8 3d 99 d8 a3 bd b8 7c 14 bc ce 43 b0 bc
       0.082063235 -0.08000297 -0.009062938 -0.021516707
000340 ca 9f 9b 3d 58 3f b5 3d 1d 37 29 3d 71 a3 58 bd
       0.07598837 0.088499725 0.041312326 -0.052890245
000350 f1 97 08 3d bb f2 9c 3d 6c 65 5f bd b0 70 00 bc
       0.033348028 0.07663485 -0.054540083 -0.007839367
000360 bb f8 00 bc d3 f6 21 3d 74 c1 2b bd 59 d8 e1 3c
       -0.007871802 0.03954203 -0.04193254 0.027568983
000370 e3 8e da ba 0c d6 2a 3d 2d 65 5e 3d bd 89 f9 3c
       -0.0016674664 0.041708037 0.054295707 0.030461187
000380 fd 8d b9 bc 00 fc 6a 3d 26 5f 06 3d af 00 72 bd
       -0.022650713 0.057369232 0.032805584 -0.059082683
000390 ba 80 35 3d 33 c8 9e bd ee 7e e6 bc f7 a2 91 bd
       0.044312216 -0.07753029 -0.028136697 -0.07111161
0003a0 37 c9 3b bd 79 06 f3 bc 7c 06 12 bd 29 6f 1c bd
       -0.04584619 -0.029666172 -0.035650715 -0.038191948
0003b0 c6 d5 f8 bc ee 81 d4 3d a2 a5 24 3d 38 39 5a bd
       -0.030375373 0.103763446 0.040197022 -0.053277224
0003c0 44 93 1b 3d 0c 8c 49 3d 2b b1 df 3b dc c1 8d 3d
       0.03798224 0.049205825 0.00682654 0.06921741
0003d0 42 a5 32 3d 03 b7 d4 3c f6 2c f1 bc 00 3b f0 3b
       0.043614633 0.025966173 -0.029440384 0.007331252
0003e0 44 89 36 bd 45 c1 87 bc c0 06 e5 3c d3 99 c8 3c
       -0.0445645 -0.01657165 0.02795732 0.024487412
0003f0 d6 ce 4a bb db ed 3f 3d c1 1d 76 bd 2f ba 5a 3d
       -0.0030946038 0.046857696 -0.06008697 0.053400215

fc_regression.weight f4 [4, 100]
000000 0e 97 da bc 88 db 86 3c 2b 40 f1 ba 84 ba 8f 3d
       -0.026683357 0.016462103 -0.0018405964 0.07017997
000010 f2 1f 73 3c cf a6 38 3c cd 64 b3 3b 0f 0f b4 3d
       0.014839159 0.011270239 0.005474663 0.08791935
000020 78 13 af bc 86 f2 14 3d b1 1c 0d bd 3a c5 9e 3b
       -0.021371588 0.0363641 -0.03445119 0.0048452886
000030 ba 09 b2 3c 25 d6 ce bc 03 e6 99 bc d4 49 91 3c
       0.021733154 -0.025248596 -0.018786436 0.0177354
000040 c5 fc a3 bc 97 c6 10 bd 26 0b d6 bc b4 e5 b1 bb
       -0.02001799 -0.03534564 -0.026128363 -0.005428994
000050 90 9a ba 3a 61 ad b5 3c 19 cf 88 bc 34 9c 9a bd
       0.0014236737 0.0221774 -0.016700314 -0.07549325
000060 e9 ae 49 3d 15 95 de 3c 56 67 2d bd 26 30 a7 bc
       0.049239073 0.027170697 -0.042334877 -0.020408701
000070 5b df ff 3a 2b 1e 09 3d 93 22 08 3d ad 83 dc bc
       0.0019521521 0.033476036 0.033236098 -0.026918257
000080 be c8 d2 3c 2c 91 13 bc b2 3b bf 3d 96 47 0e 3c
       0.025730487 -0.00900678 0.09337558 0.00868406
000090 41 c5 35 3d 8f 2f 8d bd 78 7c b7 3b 8f a7 be bb
       0.04437757 -0.06893837 0.0055995546 -0.0058183144
0000a0 f4 2b 8c bd 74 c2 a0 bc 8d bb 2b 3c b2 83 0c 3d
       -0.06844321 -0.019623972 0.010481727 0.034305282
0000b0 da 2d 4a ba 74 c3 be bd e6 a8 b5 bc 32 a2 85 bd
       -0.0007712521 -0.093146235 -0.022175264 -0.06525077
0000c0 15 90 9d bd b1 67 cc 3c a2 c7 e0 3c 26 04 25 bd
       -0.07693497 0.024951788 0.027438942 -0.04028716
0000d0 33 44 27 3c 6a 88 c9 bd 4b ca 77 3d d7 4c c7 3c
       0.010209131 -0.09840472 0.060495656 0.024328632
0000e0 03 61 d6 3d f1 f5 8c bd b3 3d 96 bd e3 77 cf 3c
       0.10467722 -0.06882847 -0.07335987 0.025325721
0000f0 cb ac 4b bd 54 e8 05 3d a1 48 e3 bc 2c e6 42 bc
       -0.049725335 0.03269227 -0.027744593 -0.011895698
000100 c4 8e 97 bc cb cf b7 bd 44 b5 35 3a f3 21 3a 3c
       -0.018500693 -0.0897518 0.0006931613 0.011360633
000110 d9 cf 29 3d d8 09 ad 3c 5f 9b 60 3c 91 a9 e0 3b
       0.041457985 0.021122858 0.013708918 0.0068561514
000120 45 ae 3b 3c 39 47 cd 3b 8e 7b b1 3c 43 4c 56 3d
       0.011455123 0.006264594 0.02166536 0.052318823
000130 f5 50 16 3c 61 03 ef 3c e9 97 47 3d 91 af 90 3c
       0.009174575 0.029176416 0.048728857 0.017661842
000140 0f 1e 3d bd 1c 5d 6a 3c ac 7c 61 bc 71 ab 18 bd
       -0.046171244 0.014304426 -0.013762634 -0.037272874
000150 f5 60 08 3d a3 9f 04 3d b2 eb 60 bd 54 5d ae bc
       0.03329559 0.032378804 -0.054912277 -0.021284737
000160 dd 1d 99 bb 08 22 4e bd c1 b8 12 3d ce 73 89 3d
       -0.0046727494 -0.050325423 0.035820726 0.06711541
000170 8f 6f 00 ba a6 e6 37 3d d5 13 9f bc 44 12 57 bd
       -0.0004899436 0.044897698 -0.019418636 -0.052507654
000180 60 ce 71 3d 9d 77 86 3c e8 dc 0e bd dd 49 a5 bc
       0.059034705 0.016414458 -0.03487864 -0.020176822
000190 38 48 b2 3d f3 a1 66 bc c8 ee ff 3c ee ab bb 3d
       0.08705181 -0.014076698 0.03124179 0.09163652
0001a0 df 17 86 bd 97 91 91 3c b9 64 9a bc 9a 7f fc 3c
       -0.06547522 0.017769618 -0.018846856 0.030822564
0001b0 95 c5 58 bd 76 4a 9a bd 60 e4 6d 3b 0e b5 1b 3d
       -0.052922804 -0.075337335 0.0036299452 0.038014464
0001c0 8b 9c 5e 3c 43 36 2e bd 13 a5 cc 3c 7d d8 b4 3c
       0.013587127 -0.042532217 0.024981057 0.022075886
0001d0 31 90 3a 3d 70 27 90 bd a7 db 04 3d 26 bf ab bc
       0.045547668 -0.07038772 0.03243604 -0.02096517
0001e0 64 df 60 3d 9a df c8 3c 38 2d 7f 3c 67 02 11 3d
       0.054900542 0.024520684 0.015574746 0.03540268
0001f0 42 92 c9 3c e3 3e da bd b3 f2 0b 3d 8b ea b8 bc
       0.024605874 -0.10656526 0.034167003 -0.022572776
000200 74 9b 6b bd 55 50 2f 3d c7 f0 98 3d 75 56 9f 3d
       -0.0575213 0.04280122 0.074678 0.07780162
000210 d4 62 1d bc 37 b9 ae bd fc fb 94 ba 66 48 f8 bc
       -0.009606082 -0.08531421 -0.0011366601 -0.03030796
000220 37 50 24 bd f0 81 25 bd dd 51 87 bd dd 26 ad bc
       -0.04011556 -0.04040712 -0.06607411 -0.021136696
000230 cf a8 6d bd d9 11 92 bd a8 91 c1 bd 27 ef 27 bd
       -0.058022317 -0.071323104 -0.0945161 -0.040999558
000240 02 39 b6 3d 64 29 11 b8 f5 63 c6 3b cb 02 41 3d
       0.08897592 -3.4609242e-05 0.0060543963 0.047121804
000250 26 cc a9 3c 91 da 8a 3c 18 48 0a 3c 04 51 89 3d
       0.020727228 0.016949924 0.00844004 0.06704906
000260 04 4b be bd 7c bb 26 3d b9 0e 3f bd 00 89 a8 bd
       -0.09291652 0.040706143 -0.0466449 -0.08229256
000270 4e 8d 29 bd c4 da 03 bd 7c 5f 9f 3d f1 93 e1 3c
       -0.041394524 -0.032191053 0.07781884 0.027536364
000280 e9 d1 fe 3d 2a 7a 9b 3b b7 71 28 be 26 a6 c7 3c
       0.12442381 0.0047447877 -0.16449629 0.024371218
000290 77 06 7f 3d 2b 6f 30 be 3a 4b 04 bd dc e2 60 3d
       0.062262025 -0.17229907 -0.032298304 0.05490385
0002a0 97 c8 5c 3d 34 4a 72 3a b6 bd e8 3c d7 1e 7a bc
       0.053902235 0.00092426245 0.028410774 -0.015266142
0002b0 b6 72 86 bd 9a 5b 18 bd 79 9e 2c bc 23 0f 4e 3c
       -0.06564848 -0.037196733 -0.01053583 0.012576851
0002c0 8f 66 c5 bd d5 3f 85 bd 0a 7e 96 bb 5e 1e a6 3a
       -0.09638702 -0.065063156 -0.0045926617 0.0012673845
0002d0 4e 6a b2 bc f0 97 a6 bd d8 f2 32 bc 1a e4 05 3d
       -0.021779206 -0.081344485 -0.010922156 0.032688238
0002e0 ee ac 8f 3d 9e 2b 90 3c f8 7b 56 3d f9 31 3a 3c
       0.070154056 0.017598923 0.05236432 0.0113644535
0002f0 8a 1f 00 bd 02 16 04 3d e4 8f 27 bc 13 5a a9 3c
       -0.031280078 0.03224755 -0.010227177 0.020672834
000300 3b fa 0e bd be cf 81 bd 36 e9 83 bd fb c4 69 bc
       -0.034906607 -0.06338452 -0.06440966 -0.014268155
000310 f8 c9 dd bc 53 0b bd bc 64 18 f9 bd ce 05 7a 3c
       -0.027073845 -0.023076689 -0.12162855 0.015260173
000320 1f c5 1b bd 05 c2 07 3d af 77 ff 3b 35 3e 6a 3c
       -0.038029786 0.033144016 0.00779625 0.014297058
000330 56 2d 08 bb 7a 58 b2 3c 46 1d 07 bc 1b 9e 8f bc
       -0.0020778975 0.021770705 -0.008246725 -0.017531445
000340 e9 63 7b 3b 8a 87 2e 3d 5d f2 f8 3c c0 65 8f 3b
       0.0038359112 0.04260973 0.030389005 0.004376143
000350 df 82 94 bc 3d b4 90 bb 04 41 b5 3c 55 95 06 3a
       -0.01812881 -0.0044160173 0.022125728 0.00051339465
000360 6a fc 1f 3d a1 93 d6 3c 45 8b c9 3c 88 ac 32 3c
       0.03905908 0.026193442 0.024602542 0.0109053925
000370 21 92 8d bc c6 0a 46 bd da 0c 47 3c 5a a9 57 bd
       -0.017281594 -0.048350118 0.01214906 -0.05265174
000380 22 4b 9a 3c 01 de 86 bd 01 7d 90 bb de 2a 3b 3c
       0.018834654 -0.06585313 -0.004409433 0.011423795
000390 fd f5 e7 bc db de 87 bc 77 7b a6 bc 42 33 01 3d
       -0.028315539 -0.016585758 -0.020322545 0.031543024
0003a0 8a a6 0f bc 69 0b 79 bc 17 ab d0 bd bb b8 6a 3c
       -0.008767733 -0.015200474 -0.10188883 0.01432627
0003b0 13 36 25 bd 73 2c 4b bd 6d 33 b4 3b de 49 4a 3c
       -0.040334772 -0.049602937 0.0054992945 0.012346713
0003c0 c5 67 2f 3d b5 78 0e bc a0 28 08 bc f2 77 10 3d
       0.04282357 -0.008695771 -0.008310467 0.03527064
0003d0 33 c9 de 3b ca a2 a0 bc 45 58 ec 3c 72 49 9b 3d
       0.006798887 -0.019608874 0.028850684 0.07582368
0003e0 9d 4c cd 3d 99 be 0e 3c 7a c1 58 bc 7c 68 b5 bd
       0.100243784 0.008712434 -0.013229722 -0.088578194
0003f0 52 e9 6d 3c 2b ca de 3c 62 11 14 bc 23 3c 48 3b
       0.01452096 0.02719601 -0.0090373475 0.0030553422

fc_regression.bias f4 [4]
000000 a4 b4 f6 3b 09 b4 5e 3d 5c cd 2b 3c 08 f0 5a 3d
       0.0075288583 0.054370914 0.010485973 0.053451568
