models/lstm/models/trained_lstm_model.pth (torch, 178536 bytes, 7 tensors)

event_embedding.weight f4 [4, 3]
00000000: d57d 633c 4d31 6b3b 180f 153b a85a f9be
00000010: 1668 a03e b3e0 1ec0 aa3b f3be 759c ccbf
00000020: 7818 11c0 ec20 a7be 9b0a 58ba acdf 293b
0.013884981 0.003588754 0.0022744592 -0.48701978 0.3132941 -2.4824646 -0.47506458 -1.5985247
-2.2671185 -0.32642305 -0.00082413264 0.0025920672

lstm.weight_ih_l0 f4 [400, 7]
00000000: 4faa 4e40 8f98 ba3f f02f 42bf 37d5 a43f
00000010: 934b 74bf 9f22 0abf 6b4c 36be f32d 7dbf
00000020: 86ee dbc0 c85f 80bf a612 d6c0 825e 583f
00000030: 8e11 373d 75a2 973e a0aa 983f f4b7 c13f
00000040: 0ad4 6b40 bb09 8f3f 74b0 94bf 957b 85bd
00000050: a57b ccbe c1b8 b540 c7e3 b2bf c902 1540
00000060: 2604 92bf f5f0 b33f 0c60 3ebe 7903 7fbe
00000070: ff55 95bf c99b 1b40 4213 c23f 173c 6640
00000080: b8d9 b7be 25ac 26be d3ed dcbe 2e81 5340
00000090: f6d1 edbf 3235 5540 638d f4bf 8d6a 3c40
000000a0: a6ce c0be a8b4 033e 8066 8abf a2d1 54c0
000000b0: ddb3 513f 1a1d 2dc0 f780 9a3c 3803 d3be
000000c0: befc 93bf 36d1 12c0 0cf9 803f 222c 163f
000000d0: d384 e43e f91a 9fbf 2de7 f0be 4663 cbbf
000000e0: 114b eb3f 1acb b6bf ec88 8cbe 7339 99bf
000000f0: 8ad5 debf a3a6 63bb 05c9 de3d 0063 21c0
00000100: 0ca2 28c1 8c6b b9c0 cdf8 0dc1 6a54 bfbd
00000110: daa1 47bf 05d0 84bf 54ec 4040 a883 893f
00000120: 7c89 0c40 10fb 273f a333 a9be 12e8 8a3e
00000130: b1d8 acbf beba b940 7278 9c3f 4768 a040
00000140: ef9b 2a3f 9654 5d3d 7edf b03e 18ac 9ebe
00000150: 6da5 bb3f 62c2 883f e7d7 463f b2f8 4e3f
00000160: 79a8 9a3e d177 093f 6560 23bf 83ec 6d40
00000170: 1eb9 39c0 2ddf 0b3f 8550 23c0 e0c5 cd3f
00000180: c5d1 06bd a548 90bd 5c39 083f a4d6 1ebf
00000190: 9931 3b40 642f 26bf 23c4 d2bf 2bf7 06bd
000001a0: 5dbb 4c3f 309b 2540 7cfe e4bd b6d6 69c0
000001b0: f565 613f db37 34c0 beda 0e3f 97ac eb3e
000001c0: 6c69 2a40 1818 f5bf 4248 0540 f914 5cbf
000001d0: 326e 1a3d de6d 0dbf 04cd 85be 496d f8bf
000001e0: a479 c93c e409 78c0 574b b73f ba9a fc3d
000001f0: 284a 923d c55f 943f 5336 0140 f249 71c0
00000200: ba74 9c3e 6bce 97c0 084f 2c3f 69e1 fbbd
00000210: 7485 393e a99b 993f fd49 7abf 0d1b 5140
00000220: 85dc b2bf 67a7 94bd 52fd c6be bf4b 663f
00000230: 7c25 8240 2b44 4dc0 6de7 2840 09c2 aebf
00000240: 22c6 853e 349f c4bd 1703 8cbf e2aa 9a40
00000250: 1827 a53f 637c 853e b861 d53f 9e7b 4abf
00000260: 9cb5 723f 30cb 8f3e 41f0 07be 261b d4bf
00000270: 1d67 373e ce5e 8cbf af23 3d3f abc9 a93d
00000280: daa1 4e3c a634 26bf 874d 6c3f 65d9 27c0
00000290: 620a 6b3f a01e 743e 9b28 913e 0841 c9be
000002a0: 829a 1440 d9a8 12c0 65a2 aebf 8570 edbf
000002b0: 71f4 aebe e9b4 89be bb28 fe3e 9725 7240
000002c0: 3ab1 873f 20a0 4cc0 b8e9 c43f 0774 4c3e
000002d0: e7c1 00be 11ab be3e 64c4 4340 a681 cbbf
000002e0: 6d63 8040 fdab a7bf a6a6 33bf bc24 703d
000002f0: 37e9 a83d bbef 6540 74d3 a5bf 4e40 3940
00000300: 0cb4 a4bf da2f 153f d578 173e 8029 2f3f
00000310: f1da 773f 230a 2dbf a207 ca3f 9f18 83be
00000320: 46ad 9bbf 6fd9 093f 73f4 633f dc4d 813e
00000330: b7d1 763f 6774 cfc0 161e a13f b7ec e33f
00000340: a644 9c3e 6fab d13c eb16 00c0 986b 6740
00000350: a4ec 5ec0 8d3f be40 a26a a1bc 6009 08be
00000360: 6b7c b9be 6a1b 5e3f 0901 0a40 f0d3 143f
00000370: 8121 cb3f fe19 adbf 4bb3 2cbf f2fb 9e3f
00000380: ecbd a73f 9b7d a5bf c352 6f40 68ee e4bf
00000390: 619b 8a3e 31a4 bebd 0eef 423e 11f6 ba40
000003a0: e1ec 6dbe 65bc 0a40 59f1 3bbf cd31 96bd
000003b0: 73f3 67be 269f 523f 6a65 f33e d501 d1bf
000003c0: 5073 04c0 fcf9 c8bf 0df0 e43f 1b1a 453f
000003d0: 0771 9fbe 7913 de3f 329f 323f 4539 6240
000003e0: a5cf 933f 7bb4 0dbf ceda 3e3e 187c 653e
000003f0: 8d2b 3a40 d7a1 1940 052d fb3e 3c46 3540
3.2291448 1.4577807 -0.75854397 1.2877568 -0.9542782 -0.5395908 -0.17802589 -0.9889824
-6.8728666 -1.002923 -6.6897764 0.8451921 0.044694476 0.29616132 1.1927071 1.5134263
3.6848168 1.1174845 -1.1616349 -0.06517712 -0.39938083 5.678803 -1.3975762 2.328295
-1.1407516 1.4057909 -0.18591326 -0.24903668 -1.1666869 2.4313834 1.5162127 3.5974176
-0.35908294 -0.16276605 -0.43150195 3.3047595 -1.85797 3.3313718 -1.9105648 2.9440033
-0.3765766 0.12861884 -1.081253 -3.325295 0.81915075 -2.7049012 0.018860323 -0.41213393
-1.1561506 -2.2940192 1.0076003 0.5866109 0.44632587 -1.2430106 -0.47051373 -1.5889671
1.8382283 -1.4280732 -0.27448213 -1.1970657 -1.7408917 -0.0034736774 0.10878185 -2.5216675
-10.539562 -5.7943783 -8.873242 -0.093422726 -0.7798134 -1.0375983 3.0144243 1.0743303
2.1958914 0.65617466 -0.33047208 0.2713018 -1.3503629 5.8040457 1.2224257 5.012729
0.66644186 0.054035746 0.3454551 -0.30990672 1.4659859 1.0684321 0.7767319 0.8084823
0.3020666 0.5369845 -0.6381896 3.7175605 -2.9019237 0.54637414 -2.5517895 1.6076012
-0.032914896 -0.07045106 0.53212523 -0.62046266 2.9249022 -0.6491606 -1.6466106 -0.03295056
0.79973394 2.587597 -0.111813515 -3.65373 0.880462 -2.8159091 0.55802524 0.46030113
2.6626844 -1.9147978 2.0825353 -0.859695 0.037702747 -0.5524577 -0.26132977 -1.9408351
0.024594136 -3.8756037 1.4319867 0.12334199 0.071430504 1.1591727 2.0189407 -3.7701383
0.30557805 -4.7439475 0.6730809 -0.12298853 0.18117315 1.2000629 -0.9776915 3.267276
-1.3973547 -0.07258492 -0.38865143 0.8995933 4.0670757 -3.2072856 2.639125 -1.3652965
0.26127726 -0.09600678 -1.0938443 4.8333597 1.2902555 0.26071462 1.6670446 -0.79094875
0.94808364 0.28084707 -0.13275243 -1.6570785 0.17910428 -1.0966432 0.73882574 0.08290418
0.012611831 -0.64924085 0.923058 -2.6226437 0.9181272 0.23839808 0.28351292 -0.39307427
2.3219304 -2.2915556 -1.3643309 -1.8549963 -0.3417087 -0.26895836 0.4964045 3.7835443
1.060096 -3.1972733 1.5383825 0.19966136 -0.12573968 0.37239888 3.0588617 -1.589894
4.012137 -1.3099362 -0.7017616 0.058628783 0.08247607 3.592757 -1.2955155 2.8945498
-1.2867446 0.5827614 0.14792188 0.684227 0.96818453 -0.6759359 1.5783579 -0.25604722
-1.2162254 0.538474 0.89044875 0.25254714 0.9641375 -6.4829593 1.2587306 1.7806615
0.30521125 0.025594441 -2.0013988 3.615942 -3.4831934 5.9452577 -0.019704167 -0.13284826
-0.36227736 0.8676058 2.1563132 0.5813589 1.58696 -1.3523557 -0.6746108 1.2420638
1.3104835 -1.2928957 3.7394264 -1.7885256 0.2707167 -0.09308661 0.19036505 5.8425374
-0.23234893 2.1677487 -0.7341514 -0.073337175 -0.22651462 0.8227409 0.4753831 -1.6328684
-2.069538 -1.5701289 1.7885758 0.7699296 -0.3114092 1.7349693 0.6977416 3.5347455
1.1547743 -0.55353516 0.18638155 0.2241062 2.9089081 2.400503 0.49057785 2.8324118

lstm.weight_hh_l0 f4 [400, 100]
00000000: b722 5cbf 2f30 82bf 781b 9e3f 105f c4be
00000010: 4556 913f d00a 0140 1c19 dabf d949 e7bf
00000020: 72d9 3f3f a99b 483b 925b 59be 5595 a9bf
00000030: 0601 bcbe 4411 cebe d518 17c0 f018 b4bd
00000040: 2a19 df3f cdd8 1740 2b3f 46bf 333f 05c0
00000050: 97d2 58c0 07fd 3b40 23df d53f 2b35 3dbf
00000060: a79a 1ec0 97bf 8f3e 7144 93bf 6bad 8bbf
00000070: f58b 93bf 2d6c a23f ac10 df3f 3c8c 25bd
00000080: 824f a2be ea5d 2bc0 dd40 7cbf ac2e 9e3f
00000090: 8370 edbf 567e 7abf 7a9c af3f 70ba f13e
000000a0: b318 903f ed58 843f 0131 86c0 3a02 f2bf
000000b0: 568e ccbf ab87 c63e 8512 29c0 32c4 133f
000000c0: 8157 b4be b294 ca3f 7e53 3d3f d0eb 7cbe
000000d0: 7e47 ebbf 393b 83bf 7783 01bf 4af5 24c0
000000e0: fb2b 6340 0145 f93d 88ad 843f a715 7d3e
000000f0: 8a70 023f cb83 22bf 7fbe cebe 8856 d13f
00000100: 4314 b63e 14be c63e a7ed 8fbf 5960 02c0
00000110: 8c0a f63d 081d 973f 3ca2 0b3f 9701 5640
00000120: bc74 dbbe fc73 ecbf 5ee4 e9bf c63c 71bf
00000130: 0b98 143c b0f0 4040 862a 9240 62d3 6abe
00000140: 66d0 1b3f d34d fb3f 5bb8 f5bf c5e0 29bf
00000150: 62f0 e83f 938f a7be af9d 0640 26cd aabf
00000160: d4cb cabf 3866 00bf 99a7 563f 9eeb bc3f
00000170: d61f fcbc 5016 f8bf 17a5 97bf 1000 24c0
00000180: 697c 16c0 c53c 283d a138 febc 9fec 38bf
00000190: 2004 a0bf 539e 933f b8b1 59be e329 c340
000001a0: 44d7 bbbf bd3a 6ac0 9dea 3ec0 a5e5 6dbf
000001b0: ee0f 55c0 7e21 33c0 d6da b3bf 60c1 debe
000001c0: 40ab 4640 29df 1ac0 f61e 3ebf ee35 25bd
000001d0: aae4 babf 6100 ba3f be44 39be 1109 1640
000001e0: c1ba b13f 6892 00c0 b9f6 90bf 78e9 81bf
000001f0: 02b3 c0bf 5a72 c83e 24da 92c0 c1b8 0240
00000200: 33c6 bcbf 5265 fcbf 6101 9ec0 4691 49bf
00000210: a98f cb3c d4db 72be 6c04 fcbe f306 4f40
00000220: 79b0 0dc0 5c35 22bf 2b10 afbe becb a23f
00000230: 7cf0 4ebf a559 98be 8986 0140 2dce 3abf
00000240: 31ec 38c0 61bd bfbf c987 4f40 7178 75bf
00000250: 15fb 7c3f 5e67 80c0 ecd8 b9bf 5f9d 58bf
00000260: ce24 c3bf 4074 d33f b016 81c0 7317 08bf
00000270: c661 b840 4578 19c0 17bb 97bf 1010 33c0
00000280: 1762 abbf ec4c 39c0 7664 243e 9add 893f
00000290: c761 023f 46b9 73c0 0c55 1140 4caf 853f
000002a0: a09b 2140 36b0 dabf b607 833f d10c a3bf
000002b0: 6251 8a3e 4c04 9540 6adf 6140 252f d4bf
000002c0: 0ffa 22c0 0ddc 68bf 5899 dc3f 8843 c1bf
000002d0: 3fc1 83be b22d 0cc0 94c9 5e40 fc0c 14c0
000002e0: 3f89 1bbf 5859 6740 743c 18c0 f966 7a40
000002f0: 61a6 9ebe 67c2 363f 5d5a f3be b685 a8bf
00000300: f783 97bd 651c 86bf c1d4 683e 1694 1c40
00000310: cd9c 05c0 ba67 55c0 4b62 af3d e3f8 efbf
00000320: 5bfc 2e3f 07e2 a83e 3a74 e23e 1f1c cebf
00000330: 9d19 e6bf 6af0 b63e 82fe df3e 58f3 c53e
00000340: 1e70 c4bf e33f e2bf f5a3 383f 4682 52c0
00000350: 7aac 7940 95d6 2dbf e4ed 173e 6864 e53f
00000360: 5ac3 17c0 20a4 1d3e 395f 8b3e bf8c 273f
00000370: 7263 96be 92f3 c3be af42 13c0 da98 b93f
00000380: 5105 25bf 0592 14bf 030e debf a19f 713f
00000390: c8b1 263f dd3d b43f 9adf 0fbf 4b2b 68be
000003a0: 5cf8 dbbf d14a a4be 4af3 19c0 6aa4 07c0
000003b0: 96c9 cfbe 71a7 bc3f 8c69 fcbe dd36 babf
000003c0: 6d7b 4cbf 2a7f c73e 4d56 a5bf d9d6 c8be
000003d0: 9b82 8cbf ddf6 b53f 3f2d 933f c6cd b23f
000003e0: f96a 3abf 78c6 a3bd 6f3e 233e 9b07 613f
000003f0: 86df 37be bfca 6e3f cf8d 73be 6179 9bbf
-0.8599047 -1.0170954 1.2352133 -0.38353777 1.1354452 2.016285 -1.7038913 -1.8069412
0.7494117 0.0030610359 -0.21226338 -1.3248698 -0.3671953 -0.40247548 -2.3608906 -0.08793819
1.7429554 2.3726075 -0.77440137 -2.0819824 -3.3878534 2.9373186 1.6708721 -0.7390925
-2.4781892 0.2807586 -1.1505262 -1.0912298 -1.1527086 1.2689263 1.7426963 -0.04041694
-0.31701285 -2.677607 -0.98536474 1.2357993 -1.8549961 -0.97849023 1.3719628 0.47212553
1.1257538 1.0339638 -4.193482 -1.890693 -1.5980937 0.3877538 -2.6417553 0.57721245
-0.3522301 1.5826628 0.73955524 -0.2469933 -1.8381193 -1.0252448 -0.50591224 -2.5774713
3.5495594 0.121713646 1.0365458 0.24715291 0.5095297 -0.6348235 -0.40379712 1.6354532
0.35562333 0.38816893 -1.1244401 -2.0371306 0.120137304 1.1805735 0.54544425 3.343847
-0.428625 -1.8472896 -1.8272817 -0.9423336 0.009069453 3.0146904 4.567691 -0.22932199
0.60864866 1.9633125 -1.9196886 -0.66358596 1.8198359 -0.32726726 2.1033742 -1.3343856
-1.5843453 -0.50155973 0.83849484 1.4759405 -0.0307769 -1.9381809 -1.1847256 -2.5625038
-2.3513434 0.04107358 -0.031032862 -0.72236055 -1.2501259 1.1532692 -0.212592 6.098863
-1.4675069 -3.659835 -2.9830697 -0.92928535 -3.3290973 -2.7989192 -1.4051158 -0.43506908
3.1042023 -2.4198706 -0.7426599 -0.040334634 -1.4601033 1.4531366 -0.1809263 2.3443034
1.3885118 -2.008936 -1.1325294 -1.0149374 -1.5054629 0.39149743 -4.5891285 2.0425265
-1.4747986 -1.971842 -4.9376683 -0.78737295 0.024848776 -0.2371667 -0.49222124 3.2347991
-2.213896 -0.6336267 -0.34192023 1.2718427 -0.808357 -0.29755893 2.0238364 -0.7297085
-2.889416 -1.4979669 3.2426627 -0.95886904 0.9882062 -4.012618 -1.4519324 -0.8461513
-1.5245607 1.6519852 -4.0340195 -0.5316078 5.761935 -2.3979657 -1.185397 -2.7978554
-1.338931 -2.89532 0.16053948 1.0770752 0.50930446 -3.8081832 2.2708158 1.0444121
2.5251236 -1.7085025 1.0236728 -1.2738286 0.27015215 4.6567745 3.529261 -1.6576887
-2.5465124 -0.9096077 1.7234297 -1.5098734 -0.25733373 -2.190289 3.4810534 -2.3132925
-0.60756296 3.614828 -2.3786898 3.912535 -0.30986312 0.71390384 -0.4752988 -1.3165805
-0.07398217 -1.0477415 0.22737409 2.4465384 -2.0876954 -3.334456 0.0856367 -1.8747829
0.68353814 0.32984945 0.442293 -1.6102332 -1.7976567 0.35730296 0.43748862 0.3866222
-1.5346715 -1.7675747 0.7212518 -3.2892013 3.9011521 -0.6790555 0.14836842 1.7921267
-2.3712983 0.1539464 0.27221087 0.65449136 -0.29372746 -0.38271767 -2.300945 1.4499772
-0.6446124 -0.5803531 -1.7348026 0.943842 0.6511502 1.4081379 -0.56200564 -0.22672765
-1.7185168 -0.3208833 -2.4054742 -2.11941 -0.40583485 1.4738599 -0.49299276 -1.4547993
-0.7987583 0.38964206 -1.2916962 -0.39226416 -1.0977358 1.4215962 1.1498183 1.3969047
-0.7281948 -0.07996839 0.15941785 0.8790223 -0.17956361 0.93278116 -0.23784564 -1.2146417

lstm.bias_ih_l0 f4 [400]
00000000: d9d9 92bf fd73 1dbf a0d8 54bf 1e15 d3bf
00000010: 2df4 92bf 8784 fcbe 0413 afbe 6b7f f7be
00000020: 9d56 23bf 6ea3 67bf 45c8 9dbf 167d 5bbf
00000030: 535c 82bf 0063 f6be 3b43 8dbe d094 2ebf
00000040: c8da 69bf 6c14 38be 7f04 4bbf 4eae a3bf
00000050: 26d8 08bf 0755 77bf e08e 81bf 5f0f 36bf
00000060: 2c2e 7bbf 7199 84bf 9576 7dbf f8b5 6dbf
00000070: 4747 15bf d698 8cbf 6f5e 9ebf d6f8 3ebf
00000080: f468 31bf aaa9 babd a689 96be 7968 91bf
00000090: c595 b9bf a814 33bf b57f 0cbf 3ec4 84bf
000000a0: c84c 73bf b9c3 44bf 0af4 4abf d814 25bf
000000b0: e360 81bf 4564 3abf 5483 04bf 18b5 35bf
000000c0: 6110 88bf b1d4 c9bf 8d0b a1bf 4428 b6bf
000000d0: 7f7a 3bbf 651c 70bf 0e99 10bf 7344 42bf
000000e0: d7d3 14bf 4598 42bf 07ea 1cbf d3be 9ebf
000000f0: 6982 85bf 9233 b8be 4aa9 97bf 6c81 70bf
00000100: f298 8dbf 3350 52bf fa4f 9cbf c804 9fbf
00000110: 0443 86be 0dad dabf 22a8 3abf 14b6 56bf
00000120: 3eb0 5dbf 95be ecbe c290 88bf bcdf e3be
00000130: 4a47 cabf b580 77bf a49a babf 5c6a 8cbf
00000140: 34c8 b7bf 1ae6 6dbf ef0a 40bf cb8c c7bf
00000150: 7da0 5dbf 8b16 80bf ea90 71be 6811 8ebf
00000160: 4f1d febe 2c7b 8fbf 8fe2 2cbf 7aa8 6ebf
00000170: 1462 95bf 29e1 90bf 702f 7cbf 3fb0 6abf
00000180: 50d7 64bf 018a afbe 4025 90bf 96c1 7bbf
00000190: f5d5 c93d ed9d fcbe 7edb 8ebf 7f6c c63d
000001a0: cb8f 32be c5e6 c1be 29b9 9dbf 5993 88bf
000001b0: bfab 9bbe b7ec 843c 9505 c0be 4c13 39bf
000001c0: 12f6 593f 7efb c3be c9a7 86be ba90 02bf
000001d0: 363d 803e 4b94 92bf 3413 63bf 673d 2ebf
000001e0: be1a 7dbe 923b adbe 1706 613f 5730 f83d
000001f0: 6030 2a3f 1df9 a63e d07f b53f 0139 f53e
00000200: e936 42bf 5d06 1a3e 9364 48be bd0b ccbe
00000210: d86a 43bf 7ec3 9cbe d0ea 49bf 6a6b 89bc
00000220: e041 edbe c174 82be bc98 0abf 6b64 6c3e
00000230: ef2b 06bf 5df1 7a3e ab38 3d3c 775c 15bf
00000240: 858b bebd 291a 0cbf 8f03 fc3d ec81 a13f
00000250: a0ba 75be 874b 753d dbb5 a9be 2914 6cbe
00000260: 61d0 70bf ac50 6abf ddc1 5dbe 1034 1abf
00000270: 64cb a2be 0cff f0be 3e9d 41bf ffe2 0f3f
00000280: 71e5 a23e 8097 633e 3060 9fbf ac0d 6b3f
00000290: 48e6 7e3f 6a47 f5be f4c8 00bf e639 71bc
000002a0: 7756 90bf 4121 373c b825 9cbe 5dd8 debd
000002b0: ea3a 16be eae1 8fbf b533 db3e 1234 12bf
000002c0: ad45 6cbf 79ac 393f f244 8a3e de8e 7fbf
000002d0: 5250 43bf 0735 3d3f 02a2 89bf 70c1 033e
000002e0: 84e4 573e b6db babe 4435 1dbf 5a55 8bbe
000002f0: da91 2cbe 2dd9 dabe 958e 29bf 00c0 563f
00000300: 5fc8 3fbf 85f2 d63e 0428 393d 66c0 473f
00000310: 4d71 303f d8b6 efbe 6057 743f fa59 bc3d
00000320: 85a2 fa3e 0bd7 173e 2fa8 66be 6a73 3b3c
00000330: 3806 dfbc a5ab 81bc 7177 fbbc 6c29 6dbe
00000340: 41dc 30bd 840c ecbd 1e62 363e 1fe5 73be
00000350: a460 00be 84cb fdbd 049d babd 2486 933d
00000360: 9cdd b1bd 5af3 e43c 94c1 98bd e4b0 7bbe
00000370: 551b 373d a6ca 823e 8445 a83d d127 3c3e
00000380: c484 dfbc a447 6fbe 3075 a2bd 2d03 13be
00000390: 3ed9 51be a763 873d 1655 8c3e 3a99 1cbe
000003a0: c2ef 3fbe 3b4c 38be 626b 4dbd d187 6dbe
000003b0: f35a 8cbe 7dc8 533e b80a 8bbd 7c0a 67bd
000003c0: db3c 3d3e 13ef 93bd 4a6d fcbc f98e aebd
000003d0: 897a 0bbd ab51 d8bd e9e7 f63d 92ba c43e
000003e0: 10ce a4bd d64b 9d3e d7c3 36be 859c 2cbc
000003f0: 9647 a63d 5f61 febd b173 7b3e 4e8a 313e
-1.1472732 -0.6150511 -0.83143044 -1.649082 -1.1480767 -0.4931986 -0.34194195 -0.483394
-0.63804036 -0.9048375 -1.2326742 -0.8573774 -1.0184425 -0.48122406 -0.27590355 -0.6819582
-0.9134946 -0.1797654 -0.79303735 -1.2787569 -0.53454816 -0.96614116 -1.0121727 -0.71117204
-0.9811733 -1.0359327 -0.99009067 -0.9285579 -0.58311886 -1.0984142 -1.2372569 -0.74598444
-0.6930077 -0.09114392 -0.29401892 -1.1360008 -1.4498831 -0.69953394 -0.54882365 -1.0372388
-0.95039034 -0.7686115 -0.79278624 -0.6448493 -1.0107692 -0.7280925 -0.5176289 -0.7097945
-1.0629998 -1.5768033 -1.258165 -1.4231038 -0.7323379 -0.93793327 -0.5648354 -0.75885695
-0.5813574 -0.76013595 -0.612946 -1.2401985 -1.0430423 -0.35976845 -1.1848538 -0.9394748
-1.10623 -0.82153624 -1.2211907 -1.2423334 -0.26223004 -1.7084061 -0.729128 -0.8387158
-0.8659705 -0.46239153 -1.0669177 -0.44506633 -1.5803006 -0.96680766 -1.4578443 -1.0969958
-1.4357972 -0.9292923 -0.75016683 -1.5589842 -0.8657301 -1.000688 -0.23590437 -1.1099062
-0.49631736 -1.1209464 -0.675332 -0.93225825 -1.1670556 -1.1318713 -0.98509884 -0.9167518
-0.8939104 -0.34284976 -1.1261368 -0.98342264 0.09855262 -0.49339238 -1.1160734 0.09688663
-0.17437665 -0.37871376 -1.2322131 -1.0669967 -0.3040447 0.016226156 -0.3750426 -0.7229507
0.851411 -0.3827781 -0.26299885 -0.51002085 0.250467 -1.1451505 -0.88701177 -0.6806244
-0.24717233 -0.3383451 0.8789992 0.12118595 0.66480064 0.32611933 1.417963 0.47895053
-0.75865036 0.1504149 -0.19569616 -0.39852706 -0.76334906 -0.306179 -0.7887392 -0.016774852
-0.4633932 -0.254797 -0.54139304 0.23085181 -0.5241079 0.24506135 0.011549155 -0.58344215
-0.09303955 -0.5472742 0.12305366 1.2617774 -0.23996973 0.05988648 -0.33146557 -0.23054565
-0.9406796 -0.91529346 -0.21655984 -0.6023569 -0.317958 -0.47069585 -0.7563056 0.56205744
0.31815675 0.22225761 -1.2451229 0.91817737 0.9957013 -0.47906047 -0.5030663 -0.014723277
-1.1276387 0.011177362 -0.30497527 -0.10881112 -0.14670911 -1.1240819 0.42812887 -0.57110703
-0.92293817 0.725288 0.27005726 -0.99827373 -0.76294434 0.7390904 -1.0752566 0.1286676
0.21083266 -0.3649575 -0.614094 -0.27213556 -0.16852513 -0.42743817 -0.6623319 0.8388672
-0.7491512 0.41981903 0.045204177 0.7802795 0.68922883 -0.46819186 0.95445824 0.09196849
0.48952118 0.14828126 -0.22525094 0.011441091 -0.027224645 -0.015828917 -0.030696603 -0.23160332
-0.0431788 -0.11525825 0.17810866 -0.23817872 -0.12536865 -0.12392333 -0.091119796 0.0720332
-0.08684847 0.02794807 -0.07458797 -0.24579197 0.0447038 0.25545233 0.08216384 0.18374564
-0.027284987 -0.23367172 -0.07932508 -0.1435668 -0.20493028 0.06610804 0.27408665 -0.15292826
-0.18743804 -0.1799783 -0.050151236 -0.23196341 -0.2741314 0.20681949 -0.06789154 -0.056406483
0.18480246 -0.07223334 -0.030813832 -0.085233636 -0.034052406 -0.10562452 0.12055952 0.38423592
-0.08047116 0.3072192 -0.17848144 -0.010535364 0.08119123 -0.12420916 0.24555852 0.17337915

lstm.bias_hh_l0 f4 [400]
00000000: 52c3 9dbf 8726 1ebf 8ad7 79bf eb97 dabf
00000010: bf57 9dbf d8fc 1cbf 1f0d 5fbe 012f fdbe
00000020: 3364 24bf a427 4ebf 2b44 94bf f4d6 6abf
00000030: 4a64 80bf f5de 05bf ed61 ecbe df08 26bf
00000040: fa45 71bf 0c27 31be 443c 5ebf ca54 b7bf
00000050: 6666 e2be 7c91 80bf 1214 5bbf 1d38 52bf
00000060: 4ec9 81bf a00b 80bf ba9a 6dbf 12b7 75bf
00000070: 10fe 24bf ffac 90bf a3a1 8cbf 8ddd 60bf
00000080: 41ad 32bf 12f8 46be efc0 98be a748 9dbf
00000090: 3b18 c9bf a1b9 17bf 5db3 17bf d1bd 8cbf
000000a0: 780d 70bf efa6 4cbf 5579 65bf 9421 15bf
000000b0: e2d1 85bf 66bf 37bf 0da0 21bf 93cb 2fbf
000000c0: bd37 94bf 572c d4bf 103c 96bf 9d07 b2bf
000000d0: 64f3 44bf 6eaf 67bf 5770 2cbf 2d7a 51bf
000000e0: 59a7 e7be ead7 47bf 382c 22bf b2ec 8abf
000000f0: 2b8f 93bf 824e 05bf 7a7c 92bf 84a6 86bf
00000100: d31c 8fbf 7df2 59bf af00 a1bf fa3d a1bf
00000110: 9811 1ebe d09d e3bf 21c6 40bf 6b4d 5cbf
00000120: ab5d 6ebf b9da e0be 63b7 81bf 0f54 afbe
00000130: 544c c2bf 3e88 6bbf 4dea c5bf f14b 90bf
00000140: 2164 c9bf 1c90 46bf 2b96 4bbf 499b c9bf
00000150: b86b 53bf 0602 87bf 81c3 30be 2315 9ebf
00000160: 4609 11bf 6020 8cbf 8870 2dbf 5965 8bbf
00000170: d04a 9bbf a7fc 82bf 89f8 78bf 6af2 67bf
00000180: 80c6 4bbf 68de 92be 017f 6ebf efcc 7fbf
00000190: 5008 253e dedb dabe 821e 8fbf fb80 363e
000001a0: f702 4fbe a21e d3be c60b a8bf ab95 84bf
000001b0: 0e9e c9be e3cb 94bb 6c67 96be 0da2 52bf
000001c0: 34a5 543f 53d2 c9be a4f3 b6be 503d 07bf
000001d0: 96c0 b83e 1952 93bf 4f7b 64bf e3c6 46bf
000001e0: 0434 22be 8c43 cdbe 8e9a 6d3f a3da 603e
000001f0: 20ad 213f 8452 183e 108b a63f 2516 ae3e
00000200: 5942 3fbf 6f3b 403e 2664 57be 0a4b babe
00000210: d903 3dbf 8503 21be 21ee 6bbf 4f59 363d
00000220: 64cb e0be ad81 49be 30b8 07bf b0b5 6f3e
00000230: dc7d f1be ecfa 3d3e 306d 1cbe e6e9 3fbf
00000240: f79b 2d3d 5448 fabe 8390 1e3e 0d87 9f3f
00000250: f8d3 e3bd c2d5 e53d 3687 ccbe 2028 cbbe
00000260: 54f3 7fbf 2a4d 5ebf dfbf 7abe e616 24bf
00000270: 2b7b 4ebe a596 12bf ee47 32bf 95cd fa3e
00000280: f45a c43e d65d 053e 2773 9cbf eda0 843f
00000290: 45ae 723f 6819 06bf 8187 19bf 3648 58bc
000002a0: 0d98 9cbf c7c3 253c 1667 80be 0c37 e3bd
000002b0: ecf4 9fbe dc59 91bf ff71 d33e d2da fabe
000002c0: be4a 6fbf 63f5 473f b6cf 623e a43b 81bf
000002d0: 506d 2cbf c135 463f e4f0 7bbf b8ff dc3d
000002e0: 5479 5b3e 3643 90be f970 ffbe 7007 cebe
000002f0: 1b8a 0bbe 3f9b edbe ce95 0cbf 714c 7c3f
00000300: 63f4 4cbf eefa f13e 568c 84bd 2225 703f
00000310: 589f 1d3f bdb8 e7be 17ab 643f 728b b53d
00000320: 5037 d63e 1e60 b73c 5cbe 4fbe b328 50bd
00000330: f340 36be 6400 98bc 3672 58bd 6b42 28be
00000340: cc54 383c d0cd 88bd 68ea 853e b4bf 13be
00000350: 7d4a 993c 359a a6bd f43c 45be d5d1 523d
00000360: 7aa2 0dbe de60 c63d 915f 06be dcf7 37be
00000370: 8802 1f3c 2d77 6f3e 3a70 343e 7121 b03e
00000380: 6779 4bbd b950 34be 2770 24be 9a05 b8bc
00000390: c52d b3be d9e2 d63d 17a0 413e 925f 92be
000003a0: f5e8 22be f0cd 37be e913 c9bd 952e 81be
000003b0: ebb2 8fbe 2061 1d3e 79b8 fbbd 78c3 903d
000003c0: c7e9 fe3d 96fb 10be d249 9ebd ea29 25be
000003d0: c475 a0bc e4ad cdbd c88d 103b 3268 983e
000003e0: 5bde 95bd 5e4f bf3e 1bb6 40be 7993 dabb
000003f0: 8e3a 16bd ca47 1bbd de3a 793e 4811 fa3d
-1.2325232 -0.6177754 -0.9759451 -1.7077612 -1.2292403 -0.6132331 -0.21782349 -0.49449924
-0.6421539 -0.80529237 -1.1583303 -0.9173424 -1.0030606 -0.5229333 -0.4616846 -0.64857286
-0.942474 -0.17300051 -0.8681071 -1.432275 -0.4421875 -1.0044398 -0.855775 -0.8211687
-1.0139558 -1.0003548 -0.9281422 -0.9598247 -0.6445017 -1.1302794 -1.0986828 -0.8783806
-0.69795614 -0.19430569 -0.29834697 -1.2287797 -1.571052 -0.5926762 -0.5925806 -1.0995427
-0.9377055 -0.7994222 -0.89638263 -0.5825436 -1.0454676 -0.71776426 -0.63134843 -0.68670005
-1.157951 -1.6576031 -1.173708 -1.3908573 -0.76933885 -0.9050206 -0.67358917 -0.8182705
-0.45244864 -0.78063834 -0.6334872 -1.0853484 -1.1528066 -0.5207292 -1.1444237 -1.0519567
-1.1180671 -0.8513563 -1.2578334 -1.2597039 -0.15436399 -1.7782536 -0.7530232 -0.8605563
-0.93111676 -0.43916872 -1.013409 -0.3424382 -1.5179543 -0.92004764 -1.5462128 -1.1273175
-1.5733682 -0.77563643 -0.79526013 -1.5750514 -0.8258624 -1.0547493 -0.17262079 -1.23502
-0.56654775 -1.094738 -0.67749834 -1.0890304 -1.2132206 -1.0233353 -0.97254235 -0.9060427
-0.7959976 -0.28685308 -0.9316254 -0.9992208 0.16116452 -0.4274587 -1.1181185 0.1782264
-0.20215975 -0.41234308 -1.3128593 -1.0358175 -0.393784 -0.0045409068 -0.2937578 -0.8227852
0.8306458 -0.39418277 -0.35732758 -0.5282793 0.3608443 -1.1509429 -0.89250654 -0.7764723
-0.15840155 -0.40090597 0.92813957 0.21958403 0.6315479 0.14875227 1.3011189 0.3400127
-0.74710613 0.18772672 -0.21034297 -0.36385375 -0.73833996 -0.15723999 -0.9216023 0.044518765
-0.43905175 -0.19678374 -0.5301542 0.23409152 -0.47166336 0.1855275 -0.15276027 -0.74966276
0.042385068 -0.48883307 0.15484814 1.2463089 -0.11124414 0.11222412 -0.39946908 -0.3967905
-0.99980664 -0.86836493 -0.24487256 -0.6409744 -0.20164172 -0.57261115 -0.69641006 0.48984972
0.38350642 0.13024077 -1.2222642 1.0361611 0.94797164 -0.52382517 -0.5997239 -0.01320081
-1.2233902 0.010117478 -0.25078648 -0.11094484 -0.31241548 -1.1355548 0.4129791 -0.48995072
-0.9347342 0.78108805 0.22149548 -1.0096326 -0.673543 0.7742577 -0.98414445 0.10790962
0.21433002 -0.28176278 -0.4989088 -0.4024005 -0.13626902 -0.46407506 -0.54916084 0.9855414
-0.80060405 0.47261757 -0.064720795 0.9380666 0.61571264 -0.45258132 0.8932356 0.08864488
0.41839075 0.0223847 -0.2028746 -0.050820064 -0.17798214 -0.018554874 -0.052843295 -0.16431586
0.011250686 -0.066798806 0.261554 -0.14428598 0.018712277 -0.081348814 -0.19261533 0.051469643
-0.13831511 0.09686445 -0.13122393 -0.17965645 0.009705193 0.23385306 0.17620936 0.34400514
-0.049676325 -0.17608918 -0.16058408 -0.022463609 -0.34995857 0.104924865 0.18908726 -0.2858854
-0.15909179 -0.17949653 -0.09818251 -0.25230852 -0.2806619 0.15369081 -0.12291045 0.07068533
0.12446933 -0.14158472 -0.07728924 -0.1612927 -0.019587405 -0.10042933 0.0022057164 0.29766995
-0.073178016 0.3736524 -0.18819468 -0.006670412 -0.036676936 -0.03791026 0.24338862 0.122103274

fc_regression.weight f4 [4, 100]
00000000: 7316 923c f232 ab3b f382 67bc f165 103e
00000010: 0270 543c 2b06 c9bc f6eb bd3c 58e5 0a3c
00000020: a43e 1a3d 1371 1e3c 5bd0 3a3d 54b8 2cbc
00000030: 1458 22bb b8b1 94bd 0f60 3e3b 6158 20bd
00000040: 6908 983b d808 14bd ef60 9bbb 8ca5 14be
00000050: b31b 213c d3c7 fe3c f5c4 acbc e834 dfbc
00000060: 1be1 1abc b535 92bb 4078 0a3d 280a b93b
00000070: da0e 423c fa3e cebd 769c 87ba 9d75 583d
00000080: bc4e 46bc c7dd 773b b3eb 913b ce7a cdbb
00000090: a295 cbba d518 be3c 339e 373c 9f63 b5bb
000000a0: 4857 983d 57a8 7dbc fd35 50bd 6f59 173c
000000b0: 8233 d23b 1df2 b8bc ce27 95bd e575 b93c
000000c0: f64e 9e3e 56f2 fdbb e71f 89bb fd13 d7bc
000000d0: a9e0 1cbc 827b 893c 0dd0 97bc 5c43 df39
000000e0: 0855 bf3c 4c74 27bc 1763 8e3e 2786 9fbc
000000f0: 9bb7 28bb 194d 8c39 6b74 52bc 0cd0 55bb
00000100: 3c81 213e 1007 e13c 83c4 16be 0bec a7bb
00000110: 134d b33c b8ed a5bc 3e79 efbb 5067 693e
00000120: a9e5 f3bc 9d9b 683c 21c8 a23c 5cd0 e4bb
00000130: 72c8 a53e 17cc 283d 3bf0 4b3e 31ba 163f
00000140: 684d df3d 616b 713c 5212 113e 2d67 4dbe
00000150: 96b1 993b 649d dcbc 72ba e13c 2a13 fd3d
00000160: d7c8 443c 1456 dc3c 84c1 fdbc 820c 293c
00000170: 5178 6c3c bdcb 9b3d f87b 3cbe a9ed b2bc
00000180: 14af 0abc 3ca7 b23d 03f8 d13b 2796 f23d
00000190: fee7 dcbb b604 36be 0816 053b 3319 5738
000001a0: 996e 6e3d caa0 25bc 7eca 1c3d 9369 8a3c
000001b0: a24b 8b3c 3d96 323e 7e68 143d 2dc5 43be
000001c0: b993 d9bd 5c40 0f3d 22a0 73bd f10a 9fbb
000001d0: 9111 8a3c 3967 b4bc 28a4 23be d27a 02bd
000001e0: 75aa f53b 94db fcbc 1a6a 973d 7c3e f2bd
000001f0: f4ce 0fbe 1010 593d b573 58bc bc76 8b3c
00000200: 2814 fe3d 8828 3a3d 59c6 11be 9792 d0bc
00000210: 9aa2 a4bb 9448 f63b 50a9 fcba 9da6 c1bb
00000220: ed23 173d 2575 b33d 99d5 35bc 554d d73a
00000230: fe80 053c 2d62 d5bb 1360 2abd 22da 25bd
00000240: 6aa7 023c bd77 74bd b1f6 853c aecf a2be
00000250: eada fd3c 60ce 863c 28b5 41bc dad7 1fbd
00000260: 41bf c73a a220 cfbd 1e03 0e3b f1fa f2ba
00000270: 2824 943d 655a 183e 2fd7 52ba 7065 473e
00000280: e191 d6bd c077 983c 84a7 2f3b c938 4c3e
00000290: 2556 b63c a0b3 00bd 44c5 a43b 5c4a 663d
000002a0: e873 bbba 5bf8 dcbc fba9 72bd 914a 22bc
000002b0: 8902 3dbd ea97 e33c ffd5 c7bd 12c3 e13c
000002c0: 4cbe 08bc 697a f03d 2f6e e1bb c567 893c
000002d0: a42a bebb e50a 863d cdc6 3c3c 24e5 c3bb
000002e0: 362c a1bc 8f81 e0b9 5cd4 24ba 75d0 823c
000002f0: ac13 793c e910 073c add9 c03b 25dc 7fbc
00000300: cbf9 22be 5320 a33c b53c 463c 2797 a1bc
00000310: 5ea1 60bd fe9e 94bc 0a28 863d 42b7 abbb
00000320: d7c3 743b d04c 3dbb 8318 f3b9 88b6 863e
00000330: dac9 93bb ae76 eabb 484d c63b 5820 7d3b
00000340: e1ff 833c 4727 b73b 0df4 d23c 6e99 e1bb
00000350: 7bd4 583a 3011 c6bc 3206 ee3a 0607 95bc
00000360: cac9 1a3c 8aec 6ebc d8b4 86bb 9c9b 213e
00000370: e928 233a db3b 2f3a 1976 10bc 89fc 6dbc
00000380: a370 83bb 89e9 f0ba 164e db3c 2507 a13a
00000390: 05a0 b13b 1d28 34bd 66ab c13b 05f1 9c3c
000003a0: a090 a6bb 3119 37ba c247 2b3b 94aa f6bb
000003b0: 2afe 433b 3fec 0b3c 2983 013c a46f 13b8
000003c0: d2c4 333d 5ecc eabb a568 96bc f8a9 d23b
000003d0: e2c8 423b 9f7f 21bc fc98 c1bc 2220 423c
000003e0: 3bab 073e e1eb 94bb 640e cbbb deb0 bebb
000003f0: b72a ebbb 1f33 433b 6f5a c5bb 5a31 c5b9
0.01783297 0.005224579 -0.014130342 0.14101388 0.012966158 -0.024539074 0.023183804 0.008477531
0.037657395 0.009670514 0.04560886 -0.010541994 -0.0024771737 -0.0726046 0.0029048955 -0.039146785
0.0046396744 -0.036141247 -0.00474178 -0.14516276 0.009833264 0.031101143 -0.02109001 -0.027246907
-0.009453083 -0.004461969 0.033806086 0.0056469627 0.011844361 -0.100706056 -0.0010346312 0.05284654
-0.012103733 0.0037821399 0.0044531464 -0.006270743 -0.0015532265 0.0232052 0.011207151 -0.0055355574
0.074385226 -0.01548203 -0.050832737 0.009237631 0.0064148316 -0.022576386 -0.07282983 0.022639224
0.30919617 -0.007749836 -0.0041847113 -0.026254648 -0.0095750475 0.016782526 -0.018531824 0.0004258406
0.023355976 -0.010220598 0.27809975 -0.019473149 -0.0025744203 0.00026760323 -0.012845139 -0.0032625226
0.15771955 0.027469188 -0.14723401 -0.005124574 0.021887338 -0.020254955 -0.0073081544 0.22793317
-0.029772596 0.014197257 0.01987082 -0.006982846 0.3237949 0.04121026 0.1991586 0.58877856
0.10903436 0.014735074 0.14167145 -0.2005889 0.0046903593 -0.026930518 0.027554724 0.12357171
0.012010775 0.026896514 -0.030976065 0.0103179235 0.014432983 0.07607219 -0.18406665 -0.02184184
-0.008464593 0.08723304 0.006407739 0.118450455 -0.006741523 -0.17775235 0.002030732 5.1283463e-05
0.058210943 -0.010109136 0.03827905 0.016896045 0.017003838 0.17440124 0.036232464 -0.19118185
-0.10623879 0.034973487 -0.059478886 -0.0048535992 0.01685408 -0.022021877 -0.1598059 -0.03185541
0.0074971267 -0.030866422 0.07393284 -0.11828324 -0.1404379 0.052993834 -0.01321118 0.01702439
0.12406188 0.04544881 -0.1423582 -0.025460524 -0.0050242664 0.007515976 -0.0019276533 -0.0059097544
0.036899496 0.08762578 -0.011098289 0.0016426245 0.00814843 -0.0065119476 -0.04159553 -0.04049123
0.007974485 -0.059684504 0.016352983 -0.31799072 0.030988175 0.01645583 -0.011822976 -0.03902421
0.0015239493 -0.10113646 0.0021669338 -0.0018537921 0.07233459 0.14878233 -0.0008042929 0.19472289
-0.10477043 0.018611789 0.0026802728 0.19943537 0.022257874 -0.031421304 0.0050283987 0.05622326
-0.001430151 -0.026973894 -0.059244137 -0.009905473 -0.046144996 0.0277824 -0.097576134 0.027558837
-0.008346152 0.11742098 -0.00687959 0.016773114 -0.005803423 0.06545047 0.011522007 -0.0059782434
-0.019674402 -0.00042821138 -0.00062877475 0.01596854 0.015202444 0.008243778 0.005885324 -0.015616451
-0.15915601 0.019912874 0.012099435 -0.019725395 -0.05484139 -0.01814222 0.065506056 -0.005240352
0.0037348175 -0.0028884895 -0.00046366834 0.26311135 -0.0045101466 -0.007155261 0.006051693 0.0038624015
0.016113224 0.005589399 0.025751138 -0.0068847453 0.0008271408 -0.024178118 0.0018159805 -0.018191826
0.009447524 -0.0145827625 -0.0041109137 0.15782017 0.00062240526 0.00066846394 -0.008817219 -0.014525541
-0.00401123 -0.0018380146 0.026770633 0.0012285454 0.005420687 -0.043983568 0.005910325 0.019157896
-0.0050831586 -0.000698465 0.00261353 -0.0075276587 0.0029906132 0.008540212 0.007904806 -3.5151505e-05
0.043888874 -0.0071654757 -0.018360445 0.0064289533 0.0029721786 -0.009857087 -0.023632519 0.011848481
0.13248913 -0.0045447205 -0.006196784 -0.005819424 -0.007176723 0.002978511 -0.0060227434 -0.00037611538

fc_regression.bias f4 [4]
00000000: 8958 733c 99ce 483d d1e8 ef3b 6f69 4d3d
0.014852651 0.049025152 0.007321455 0.050149377
