models/lstm/models/trained_lstm_model.pth (torch, 179069 bytes, 7 tensors)

event_embedding.weight f4 [4, 3]
000000 b0 23 64 bb be f2 1a be de 43 d5 3c 1c fc 8e bf
       -0.003481131 -0.15131661 0.026033338 -1.1170688
000010 fe bf 88 3e 83 75 0a bf 77 53 88 bf 3f ed 9f 3f
       0.26708978 -0.5408556 -1.0650471 1.2494277
000020 1a 05 2e 3f 9e 04 0e 3c 33 0d 2f 3f cc 8f fd bd
       0.67976534 0.008668093 0.68379515 -0.12380943

lstm.weight_ih_l0 f4 [400, 7]
000000 9e 5d 47 bf aa cb fd 3e fa ce 6e bf 79 a1 d8 3e
       -0.77877223 0.49569446 -0.9328457 0.42310694
000010 07 d1 d8 3e ac 8c 2f 3f 84 1e 60 bf d2 d5 3f bf
       0.42346975 0.68574023 -0.87546563 -0.7493564
000020 32 60 a5 3f 72 00 7e bf 81 d8 8f 3f 75 9c c2 3e
       1.2919981 -0.9921943 1.1237947 0.38009992
000030 2b d4 08 3f 11 0b b0 be de e9 66 40 2c 30 b5 3f
       0.5344874 -0.34383443 3.6080241 1.4155326
000040 a7 6b 2c 40 19 7c b6 3f d9 3d c3 be fe 55 80 be
       2.6940706 1.4256622 -0.38133124 -0.25065607
000050 81 58 ab 3e a5 b6 91 3f a2 75 c6 3f 72 47 80 3f
       0.3346596 1.1383864 1.5504649 1.0021803
000060 f8 96 e2 3f df ef 3a 3f a7 9d 6d 3e 4b ce 66 be
       1.7702322 0.73022264 0.23204671 -0.22539632
000070 b9 53 c8 be 56 50 f3 bd 85 0c 37 bf 7c 25 29 be
       -0.39126375 -0.11880557 -0.7150348 -0.16518205
000080 96 2e d1 3e 43 65 22 bd 45 5e 77 bb c7 06 91 be
       0.40855855 -0.039647352 -0.0037745398 -0.28325483
000090 18 38 e4 3e 97 9d 6a 3f b8 95 d0 3e 75 14 0f bf
       0.44574046 0.91646713 0.40739226 -0.5589059
0000a0 e1 05 bc be c0 4c aa bc d7 e1 bb 3f 16 37 a0 3f
       -0.36723235 -0.02078855 1.4678296 1.2516811
0000b0 b2 8e de 3f 7b ea a2 3f eb 5f 88 3c 04 21 2b bf
       1.7387297 1.2727808 0.0166473 -0.6684725
0000c0 8d 84 50 3f 37 ce 56 c0 4f d2 11 bf d4 42 59 c0
       0.81452256 -3.3563364 -0.5696153 -3.3947039
0000d0 2b 83 e7 be 82 78 8b 3e 36 70 65 3f 59 bd 90 bf
       -0.4521726 0.27240378 0.89624345 -1.1307784
0000e0 fa 96 22 3f 6d cc e4 bd 3f 85 cf 3e 27 26 24 bd
       0.6351162 -0.111718036 0.40531346 -0.040075447
0000f0 35 56 14 bf 4a e8 1c bf ea db 82 3f 1a 0c 9a bc
       -0.5794404 -0.61291945 1.0223362 -0.018804599
000100 44 f9 72 be 24 be df bf 98 d4 d3 be 24 62 e3 3d
       -0.237279 -1.7479901 -0.41373134 0.11102703
000110 eb 4c 86 be f0 f4 b1 3e ea 50 94 bf 58 e2 de 3e
       -0.2623056 0.34757185 -1.1587193 0.43532062
000120 c1 ae 24 bf bc 71 c2 3d 3b dd 3c 3f be 04 8b 3f
       -0.64329153 0.09494349 0.7377507 1.0860822
000130 8c cb 59 bf b5 b0 6a 3e d3 87 5f bf 28 ed 28 c0
       -0.8507621 0.22918971 -0.87316626 -2.6394749
000140 38 6b 84 bf 9b 4c 24 be e2 55 1d 3f c3 10 32 be
       -1.034522 -0.16044848 0.6145917 -0.17389207
000150 46 3a 8c bf d6 ea 29 3c 49 8c 8c be a4 0c e9 bd
       -1.0955284 0.010370931 -0.2745078 -0.11379364
000160 b2 a0 a0 bf b4 52 34 3f f3 a4 29 bf b0 e6 81 be
       -1.254904 0.70438695 -0.6626732 -0.25371313
000170 b2 86 cb be 59 fb 50 3f 2b be af be 7b df 52 3e
       -0.39751202 0.81633526 -0.34324774 0.20593064
000180 da bf 10 3f 8e 20 17 bf 05 14 37 bf a9 2b 5c 3f
       0.5654274 -0.5903405 -0.7151492 0.8600412
000190 41 b6 32 c0 e9 ed 74 3f 02 d6 97 3d c0 c2 b4 be
       -2.792374 0.9567552 0.074138656 -0.35304832
0001a0 30 14 fc 3e 6a fc 96 bf 91 6d 69 3d b4 69 0e 3f
       0.49234152 -1.1795781 0.056989256 0.5563004
0001b0 54 d4 37 3e d2 ce 75 be 5e d4 ab be 59 c9 30 3e
       0.1795209 -0.24004677 -0.3356046 0.17264308
0001c0 80 bf 82 3f 2f a8 9f be d4 a7 0c 40 b8 a3 2a be
       1.0214691 -0.31183 2.1977434 -0.16664016
0001d0 ca 4e 44 3e a0 1d bd 3c 14 53 b5 3c d4 20 21 c0
       0.1917068 0.023085415 0.022134341 -2.5176287
0001e0 b5 16 ca bf bc 97 1c c0 d8 c8 d9 bf 5e 51 c2 3e
       -1.578818 -2.4467611 -1.7014418 0.37952703
0001f0 b6 cf ed 3c 98 54 b7 3e 05 b1 b6 bf 02 38 d3 bf
       0.029029708 0.35806727 -1.4272772 -1.6501467
000200 aa e0 5e bf bc cc cd bf 73 db 2c 3f ff b8 b1 3f
       -0.8706156 -1.6078105 0.6752235 1.3884581
000210 90 b3 a2 bf 85 3e 23 bf 04 bc 7d bc e8 e7 9b 3e
       -1.2711048 -0.6376727 -0.015486721 0.30450368
000220 07 98 85 3e b7 f8 ae be e0 08 43 3f dc b4 e3 be
       0.2609255 -0.3417413 0.7618542 -0.44473922
000230 b8 87 0c 40 f3 8a 9a be a1 ff 5c bd 21 94 8b be
       2.1957836 -0.30184135 -0.053954724 -0.2726145
000240 5b a1 ac bb 38 45 94 3d fe 0d 25 be 23 4f d3 be
       -0.0052682585 0.07239765 -0.16118619 -0.41271314
000250 74 43 60 3f 21 48 a6 3d a5 7b 58 3f a3 de 45 be
       0.87602925 0.08119226 0.84563667 -0.1932321
000260 cb 35 9e 3e 1d 39 8e bd 54 63 4f 3f 16 05 ef be
       0.30900416 -0.06944487 0.8101094 -0.46683568
000270 27 2f 83 3f 4f 54 d6 be 29 62 06 3f 11 36 5c 3e
       1.0248765 -0.41861197 0.5249353 0.21505
000280 e0 f0 3b bd b5 83 f2 3f da 72 2c 40 e9 99 2b 3f
       -0.045884013 1.8946444 2.69451 0.67031723
000290 39 0b 2a 40 b7 d5 41 3e e2 93 73 be de 88 a9 3e
       2.656935 0.18929182 -0.23786882 0.33112234
0002a0 54 72 b7 bf 41 62 15 3f bd 61 39 3f 23 26 ba 3e
       -1.4331765 0.5835305 0.7241476 0.3635722
0002b0 69 4f ef be 4b ce 82 bf 89 8a 93 3f 82 db b1 bf
       -0.46740273 -1.0219206 1.1526653 -1.3895113
0002c0 55 2d 1d 3f f9 c7 a7 bf 6e 23 01 3f bd 7b 98 bc
       0.61397296 -1.3107902 0.50444686 -0.01861369
0002d0 dd d5 a0 be 0a fa 06 3f 60 2a 2d be a6 be df 3f
       -0.31413165 0.5272528 -0.16910696 1.7480056
0002e0 c0 d3 88 3f d0 9b cf 3f 85 6f d0 be 7d ab 89 bf
       1.0689621 1.6219425 -0.40710083 -1.0755459
0002f0 cc 72 94 3f 4e 38 9d bf 80 be 3f be e2 78 0d 3f
       1.1597533 -1.2282808 -0.18725014 0.5526258
000300 07 33 4c be 1d ed c4 3e b9 d9 0b 3f 1b cc 15 bf
       -0.1994134 0.38462153 0.54629093 -0.58514565
000310 41 51 59 be 79 e6 18 3c 89 d6 a6 bf 7a 76 8e bd
       -0.21222402 0.009332293 -1.3034221 -0.06956191
000320 4d 40 1e bf 05 43 8f bd 1a aa 6e be 95 f6 a5 3f
       -0.61816865 -0.06995205 -0.23307076 1.2965876
000330 60 85 40 3f 82 03 d1 3f fa f3 52 3f 8f ae 1a bf
       0.75203514 1.6329195 0.8240353 -0.60422605
000340 9f 32 1d bf 6b ff dc 3e ad f1 19 bf a4 77 0a 3f
       -0.61405367 0.43163618 -0.6013439 0.5408881
000350 96 b1 14 c0 ec 2e b2 3e f4 0a 20 3f de 55 b8 3e
       -2.323339 0.34801424 0.62516713 0.3600301
000360 35 0a 33 bf e6 a0 33 c0 6b 29 09 bf 47 7d d6 bf
       -0.6993745 -2.8066955 -0.53578824 -1.6756982
000370 c8 0c 0e bf 89 4d c6 be 87 2f f7 be 0c e9 c2 3e
       -0.5548825 -0.3873103 -0.48278448 0.38068426
000380 b1 13 0d 3d 71 53 04 bf b4 2d 71 3f e2 25 c0 be
       0.034442607 -0.5168982 0.9421036 -0.37528902
000390 91 a4 56 3e e6 80 1e 3f 2d 1a 28 bf de 81 03 3f
       0.20961215 0.61915433 -0.6566494 0.51370037
0003a0 dc a6 3c 3f e0 1b 1f 3f 75 43 63 3f 00 76 e4 bd
       0.7369211 0.6215191 0.88774806 -0.11155319
0003b0 69 37 15 bf 67 01 25 3f 78 f4 71 bf a3 22 8d 3f
       -0.58287674 0.64455265 -0.94513655 1.1026195
0003c0 ff 3c 66 bf b4 6a 5b 3f 46 f5 1e bf b9 b1 6a bd
       -0.8993682 0.8570969 -0.6209301 -0.057298396
0003d0 86 72 2f 3e 1b d9 08 bf 9b 59 6f be c8 d9 8e bf
       0.17133531 -0.53456277 -0.23374026 -1.1160212
0003e0 f2 04 9e be a3 96 02 3f 62 ef ef 3e 8d 2b 0a bf
       -0.30863148 0.51011103 0.46862322 -0.53972703
0003f0 f4 f5 e1 3f 2a 9d 0e 40 79 13 92 3f 70 48 18 40
       1.7653184 2.2283425 1.1412193 2.3794212

lstm.weight_hh_l0 f4 [400, 100]
000000 99 51 b9 be d4 dd 25 bf a1 f1 74 3f e7 49 a0 be
       -0.36195067 -0.6479161 0.95681196 -0.31306383
000010 28 3e 3a be b5 37 0d bf c0 9b 74 3e 8b 91 2d 3f
       -0.18187773 -0.5516313 0.23887539 0.67800206
000020 d6 fd f4 3e aa a0 ee 3c 2a 40 fb bd ad 76 34 bf
       0.4784991 0.029129345 -0.12268098 -0.70493585
000030 47 49 16 3f b4 eb a2 3e 1a db c7 3d f3 92 b8 3d
       0.5870556 0.31820452 0.09758587 0.09012403
000040 79 c4 c0 bd 74 1e 23 bf a2 c3 9c 3f ee ae 58 3f
       -0.09412474 -0.6371834 1.2247202 0.8464192
000050 88 1e bd 3d b5 ef d5 be 22 df 84 be eb 10 6e be
       0.09234339 -0.41784444 -0.25951487 -0.23248641
000060 13 b7 63 3f c2 c8 82 bf da a3 8b bf 0e 1d 6c 3e
       0.88951224 -1.0217516 -1.0909379 0.23057958
000070 73 be a7 be 78 e2 2e bd a2 8a 00 3f 2f b7 18 bf
       -0.3276249 -0.042696446 0.50211537 -0.59654516
000080 8b 29 e0 3e 55 c8 8f bf 75 0e 84 3f c4 2e 36 3e
       0.43781695 -1.1233011 1.0316912 0.17791277
000090 2c 86 62 3e 27 08 07 bf 15 b4 90 bf 82 e1 da 3e
       0.22121495 -0.52746814 -1.1304957 0.42750174
0000a0 c7 71 c7 3e a5 e8 52 bf 0f 58 2e 3f be 59 60 bf
       0.38953993 -0.8238624 0.68103117 -0.87636936
0000b0 0e bb 58 3e 4c 69 5e 3f 4d 7a cb 3e 2f 2c 60 be
       0.21165106 0.8687942 0.39741746 -0.21891855
0000c0 3c 9f 68 bf 1e 6f 39 bf 1c 89 c1 be 5d 73 9a bf
       -0.9086797 -0.72435176 -0.3779992 -1.2066456
0000d0 08 6e ae be b2 b0 83 3f 01 bb ee 3f 43 83 70 3e
       -0.34068322 1.0288298 1.8650819 0.23487572
0000e0 7c cb 34 bf 12 f2 34 3e 7e 76 15 3f 2f fb 8c 3f
       -0.7062299 0.17670467 0.5838393 1.1014155
0000f0 18 c8 69 bd 37 85 af bd a1 ee 28 bf a8 2b 32 3e
       -0.05707559 -0.085703306 -0.6598912 0.17399466
000100 45 c6 98 bf 2a 70 a1 be e7 61 cf 3e 73 7e 4b 3f
       -1.1935507 -0.31530887 0.4050438 0.7948982
000110 49 e5 ec 3e 0c c4 8d bf 43 b8 77 3f cb 5b f8 be
       0.4626868 -1.1075454 0.96765536 -0.48507532
000120 bc 59 1f be 80 6e bc be 5a aa 92 3f 74 d6 5c bf
       -0.15561575 -0.36803055 1.1458237 -0.8626473
000130 31 e8 36 bf e4 7e d2 be 3f 70 ce bf 1a 3e 69 bd
       -0.71448046 -0.41112435 -1.6128005 -0.05694399
000140 2c 1d 6d be 0a 9d f1 3c f6 d3 b1 3e 95 12 3b 3d
       -0.2315566 0.029493827 0.34732026 0.045672018
000150 1a fd 15 3f 4f fa 41 3e 3e 49 f3 3f 2b 6c 2d bf
       0.5858933 0.18943141 1.9006727 -0.67743176
000160 37 4c 7d be b2 ab c3 bd de 3a 93 3d 83 af e6 3e
       -0.24736105 -0.09554233 0.071889624 0.4505578
000170 41 9d dc 3d 63 da 56 3f 46 ae f1 be f8 b1 90 bf
       0.10772181 0.8392698 -0.47203273 -1.1304312
000180 31 65 8e 3f 18 d8 dc be 3a 76 9a 3f 01 9a 97 be
       1.1124631 -0.43133616 1.206733 -0.29609683
000190 26 2d ca 3e af 52 23 bf 98 69 d8 be c1 06 6f 3e
       0.3948757 -0.6379804 -0.42268062 0.2334242
0001a0 d8 1d 83 3f 56 0d 2f bf 7f 81 23 3e 0f 07 5c 3e
       1.0243483 -0.68379724 0.15967368 0.21487068
0001b0 d1 4b 4d 3e cc 31 e1 be 1e 03 fa bd 64 21 2d 3e
       0.20048453 -0.43983305 -0.12207626 0.16907269
0001c0 99 a8 52 3d 1b 80 ca bd 80 70 1f bf b5 e4 55 3f
       0.05143032 -0.098877154 -0.62281036 0.83552104
0001d0 75 19 d8 3e 85 7c 69 3f 7f 0c 42 bf 88 36 47 3e
       0.42206922 0.91205627 -0.7580032 0.19454396
0001e0 76 e6 a8 3e 47 e8 5c 3f 70 85 3f be 2d 33 ae bf
       0.32988328 0.8629193 -0.18703246 -1.3609368
0001f0 6d f9 94 3d d0 bf 7d be 1d 09 2e 3f 6d 92 c3 be
       0.07274137 -0.24780202 0.67982656 -0.38197652
000200 64 d7 a8 be b0 c9 1c 3f a7 0f 93 3e ca e1 44 bf
       -0.3297683 0.6124525 0.2872288 -0.76907027
000210 ef ec b8 3f 2d cd 79 3f 93 97 f0 bf 78 02 90 bd
       1.4447306 0.975787 -1.8796257 -0.07031721
000220 51 7f 51 bf f6 b8 eb 3e 46 e5 00 40 f6 ae c3 3c
       -0.81834894 0.46039551 2.0139937 0.023887139
000230 6c d2 50 3d 94 92 4c 3e d1 ec 1f bf 66 3a 8a bc
       0.050981924 0.1997779 -0.6247073 -0.01687355
000240 b0 3b 4f 3f af 9c ff 3f 2d 55 1c bd 32 3b bf 3f
       0.8095045 1.9969691 -0.038167167 1.493994
000250 5c 5b 06 3f 57 2e 13 3f 55 82 b2 3c ff aa 19 be
       0.52483153 0.57492584 0.021790663 -0.15006636
000260 c7 37 18 bd 85 54 d9 3e 15 2c 12 bd 03 be 45 bf
       -0.03716257 0.42447296 -0.03568657 -0.7724306
000270 ad 69 ad bf 50 f5 f6 3e e9 17 85 3e 68 f3 4d bf
       -1.3547875 0.48234034 0.25994805 -0.80449533
000280 cc 1e 22 be 80 d9 f8 3e fc 16 a7 3f ea 2b 70 3e
       -0.1583206 0.4860344 1.3053889 0.23454252
000290 08 5e 9b be 49 f6 90 bf 35 dc 1a bf f9 66 e1 3f
       -0.30345178 -1.132516 -0.6049226 1.760955
0002a0 ce 09 5e 3f 1b 92 3c 3d 78 d3 71 bf b9 c6 20 bc
       0.8673371 0.046037775 -0.944633 -0.009813004
0002b0 60 4c 88 be f0 5a 88 3e b1 95 3f 3f 94 fe fd be
       -0.2662077 0.2663188 0.74837786 -0.4960829
0002c0 d6 4e 90 3e ef 86 36 3f 7b fe 2a bf bb 33 17 3e
       0.28185147 0.7129964 -0.66794556 0.14765827
0002d0 48 de 41 3f 39 5c f1 bf 52 37 0c 3f 44 8a a5 3e
       0.757298 -1.8856269 0.5477191 0.3233205
0002e0 68 0e 5f 3f 56 97 e3 bd b1 cf e9 be 72 2c 0d bd
       0.8713136 -0.111128494 -0.45666268 -0.034466214
0002f0 ac af 38 3e ef 89 73 3e 4f da d8 be 3f 5b 0c bf
       0.18035764 0.23783086 -0.42354056 -0.5482673
000300 00 af 7b bf 96 01 61 3f 4e 02 8c 3f bc a2 fd bd
       -0.98313904 0.87893045 1.0938203 -0.12384555
000310 17 ca 25 bd 36 08 2f 3d 01 8b 16 be fc aa a9 be
       -0.04047593 0.04273244 -0.14701463 -0.33138263
000320 8e 2b 86 3f da 8d 46 bc db ad c8 be be fa 93 3f
       1.0482042 -0.012118781 -0.3919514 1.1560895
000330 ce a1 18 bf 71 9e 30 be 29 05 9b be 1a ec a4 3e
       -0.59621894 -0.1724794 -0.30277374 0.3221138
000340 18 1f eb bd b0 22 2f be e0 4d 53 3e 4c dc 69 bd
       -0.1148054 -0.17103076 0.20635176 -0.057094857
000350 56 e8 53 be fa dd 3e 3f eb 8e 34 bf 56 ad 52 be
       -0.20694098 0.7455746 -0.70530576 -0.20573935
000360 23 f4 78 bf 4c 9c 1f 3f 0c 5d 01 3d f9 22 c0 3d
       -0.97247523 0.62347865 0.031582877 0.093816705
000370 07 54 d1 3e 14 6b 44 be eb d4 05 bf 71 4d 92 bf
       0.4088442 -0.19181472 -0.5227801 -1.1429883
000380 90 53 d2 be b4 7b 93 3c 02 f0 bb 3e 32 19 b0 bd
       -0.41079378 0.018003322 0.3670655 -0.085985556
000390 cc 98 31 3e 07 72 07 bf a3 9e 5d 3d f7 58 67 3f
       0.17343444 -0.52908367 0.054106366 0.90370125
0003a0 30 6b 96 3f 1a a6 17 3f 03 d9 de 3d 5b 0a b8 be
       1.1751461 0.59237826 0.108812355 -0.359454
0003b0 f6 f4 69 bd 17 ab 68 3d 34 26 3e 3f 02 6b 77 be
       -0.05711838 0.05680379 0.74277043 -0.24161914
0003c0 1a 14 15 bf 2c e4 11 bc ea 1a 68 bf d6 18 9c 3e
       -0.582338 -0.008904498 -0.9066607 0.30487698
0003d0 04 42 b4 be 92 92 4b 3e 63 0d b0 3e 1b 36 67 bd
       -0.35206616 0.19880131 0.34385213 -0.056448083
0003e0 2b 58 14 bf 4a bf 21 3f 1a 78 13 be 0b b7 e2 3e
       -0.57947034 0.6318251 -0.14401284 0.44280276
0003f0 50 25 f1 3e e3 fe 0b 3f 70 c2 c3 3e 54 2d 25 bf
       0.4709878 0.546858 0.38234282 -0.6452229

lstm.bias_ih_l0 f4 [400]
000000 cf 63 09 be 0e d1 d0 be 8c 91 9e be 04 05 f5 be
       -0.1341698 -0.40784496 -0.30970418 -0.4785539
000010 6e 6f 5a bd 85 0a b2 be a7 06 05 bf ff ba 3b bf
       -0.053328924 -0.3477365 -0.51963276 -0.7333221
000020 2b 22 4d bf 2e 51 82 bd a2 ef 38 bf cc 15 8b bf
       -0.8013026 -0.0636314 -0.7224065 -1.0866027
000030 41 f4 24 bf c2 94 d3 be bc f5 65 bd 3d 3d 7c be
       -0.644352 -0.4132443 -0.056142554 -0.24632736
000040 11 d5 e8 be 1f 50 86 be ef 2c 34 be c1 5f 42 bf
       -0.45475057 -0.26233003 -0.17595266 -0.7592736
000050 b1 c6 23 bf 5a 3d 0d bf a1 e3 8b be 4e a7 e9 be
       -0.63975054 -0.5517174 -0.27322105 -0.45635456
000060 9a 74 4b 3d 28 80 c8 be 2c 87 47 3e 4c 72 5c be
       0.049671747 -0.39160275 0.19485158 -0.21527976
000070 56 31 ac be 8f d2 99 3d ca 8c 48 3e 06 c6 d3 be
       -0.3363139 0.07510864 0.19584957 -0.41362017
000080 fd ca be be 7b 0d fa 3d 91 68 91 be 95 bb 52 3d
       -0.37264243 0.122096024 -0.2840009 0.051448423
000090 c6 d8 d9 3c 4c 11 81 bd c8 7e 45 be 47 ef 05 bf
       0.026592623 -0.06302127 -0.19286644 -0.52318233
0000a0 6f 7e 84 be b4 b3 25 3e 03 5d f7 bc 5c 29 ba be
       -0.2587771 0.16181833 -0.030195719 -0.3635968
0000b0 d3 db 9b be ca 34 10 be 09 90 dc be ff 3f 0c be
       -0.3044115 -0.14082637 -0.4307864 -0.13696288
0000c0 29 d2 c4 be 2a a1 34 bf bd 47 05 be 99 9f 69 be
       -0.3844159 -0.70558417 -0.13015647 -0.22814788
0000d0 d0 77 20 bf 2e a9 bb be 9f 47 f3 be b2 fc 34 bf
       -0.6268282 -0.3665251 -0.4751558 -0.7069808
0000e0 1c 28 01 bf 4c 31 0e bf b8 40 05 bf b9 81 8b be
       -0.5045183 -0.5554397 -0.5205188 -0.27247408
0000f0 25 83 db be 4d ea be be c0 77 61 bf 26 14 f5 be
       -0.42873493 -0.37288132 -0.8807335 -0.47866935
000100 b6 49 4b 3d d4 42 18 bf fd 4a 8b be 81 68 f9 be
       0.049630843 -0.5947697 -0.2720565 -0.48712543
000110 ad ea e4 be 03 18 8d be 45 bc d9 be 4d 4a a5 be
       -0.44710293 -0.27557382 -0.4252645 -0.3228325
000120 b3 1b c7 be 3a ab de be 99 63 0a bf 21 b2 08 bf
       -0.3888832 -0.4349001 -0.54058224 -0.53396803
000130 b8 1f e5 be 1b 37 73 be 9e 99 1a 3c dc cf 01 be
       -0.44750762 -0.2375149 0.009436039 -0.12676948
000140 7a 95 05 bf cf 82 d0 be a2 3b 19 bf b8 5f 28 bf
       -0.5218121 -0.407248 -0.5985662 -0.65771055
000150 a6 94 ea be 6c 8f 41 be 16 b0 cc be 5d bb b2 be
       -0.45816535 -0.18902367 -0.39978093 -0.34908572
000160 3c 2e 84 be f5 9c 4d be 4d e5 0e bf 93 0c 8f be
       -0.25816524 -0.20079406 -0.55818635 -0.2793928
000170 b3 7d c6 be e1 07 c7 be 65 23 e8 be 20 c2 ba be
       -0.38767776 -0.388732 -0.45339504 -0.3647623
000180 82 21 ea be 0b 9f 27 bf 62 64 48 be 16 0c 9f bc
       -0.4572869 -0.65477055 -0.19569543 -0.019414943
000190 75 6b 4a be 55 b2 b7 3d 3b ba 46 3d 11 0e 95 be
       -0.19767554 0.08969561 0.048517447 -0.29112294
0001a0 84 42 83 be 5f ee d3 be 6e c3 65 3e 35 da 68 be
       -0.25636685 -0.413928 0.22437832 -0.2273949
0001b0 bb 86 87 3e ec be 09 bf 52 e9 5f be ef 10 0a be
       0.2646998 -0.5380695 -0.21866348 -0.13483022
0001c0 61 30 e2 3d 9c 97 33 bd 7b f2 8c bd 9f 90 bb 3e
       0.11044384 -0.043845758 -0.06882187 0.36633775
0001d0 bb 4e 42 be 0b 9d c6 3e 51 09 d0 be e5 ea b7 39
       -0.18975346 0.3879169 -0.40632108 0.0003507949
0001e0 f9 60 88 3e 9a 95 0f 3e 5f d3 0d be ee 45 a6 3e
       0.26636484 0.14021912 -0.13850163 0.32475227
0001f0 87 5f 55 be 87 2c cf 3d a2 d4 d1 be 63 19 46 bf
       -0.20837222 0.10115915 -0.40982538 -0.7738249
000200 f4 14 88 be 33 63 c8 3b e9 2e 29 bf 46 66 1c bf
       -0.26578486 0.006115341 -0.66087204 -0.61093557
000210 97 f6 d7 bd e1 5a f7 3d 5e 93 7f be b8 7c 01 bf
       -0.1054508 0.12077881 -0.2495856 -0.5058093
000220 87 d4 6a bd fa a3 33 3f eb 35 06 bf 61 a3 48 3e
       -0.057331588 0.70172083 -0.5242602 0.19593574
000230 06 e7 71 be f3 15 5a bf aa ca aa be f0 1d 5b 3c
       -0.23623285 -0.8518974 -0.33357745 0.013373837
000240 6a 3b 3e be 63 99 80 be cb 37 fb be 6a b2 3a 3d
       -0.18577352 -0.25117025 -0.49066004 0.045580305
000250 c4 4c 80 3e ef 13 dc bd 1e 4b 25 bf a2 82 0a be
       0.25058568 -0.107459895 -0.64567745 -0.13526395
000260 ca 5b ce be 18 12 b8 be 99 f7 28 bf 07 e0 e9 3d
       -0.40304404 -0.35951304 -0.66002804 0.11419683
000270 46 7a 8e be 57 34 52 be 3a 81 ba bc 8a 13 2d 3e
       -0.27827662 -0.20527779 -0.022766698 0.16901985
000280 ba be 66 be 13 20 8d be 3b 94 ab bc 63 86 f5 3d
       -0.22533694 -0.27563533 -0.020944705 0.11988523
000290 64 92 e2 be 0e dc fd bc 45 bf 44 3e 99 d2 38 bd
       -0.44252312 -0.03098872 0.19213589 -0.045122717
0002a0 9f 06 84 be b5 5f a6 3e 6e a6 11 be df 67 0d bf
       -0.25786301 0.32494894 -0.14223644 -0.5523662
0002b0 f0 48 2e bf 29 20 f2 3e 58 fa 2e be c7 07 48 bd
       -0.68080044 0.4729016 -0.17087686 -0.048835542
0002c0 f4 7d fb be 57 e1 af be 22 af c4 be e2 1f 71 3e
       -0.49119532 -0.34351608 -0.38414866 0.23547319
0002d0 97 fc db be 4e 56 8f 3d e4 eb b5 bd 5e 6d 83 be
       -0.42966148 0.06998883 -0.08882883 -0.25669378
0002e0 02 6e fa 3d 7e 7e 08 bf aa f7 a2 bd cc 75 96 3d
       0.122280136 -0.5331801 -0.079573944 0.07346687
0002f0 42 50 18 bf 21 f4 1e 3d 90 04 04 be b1 42 1e be
       -0.59497464 0.03880704 -0.12892365 -0.15455128
000300 9c 8e c5 3d e8 79 a1 be ab 4b 83 be 14 85 53 be
       0.09646341 -0.3153832 -0.25643668 -0.20656234
000310 e0 60 f9 bd a0 d5 16 3f 8f 12 f0 be b6 a0 86 be
       -0.121766806 0.58919716 -0.4688916 -0.26294488
000320 20 43 1c 3d b8 e3 e7 bc e3 7c 2c 3e f8 d8 32 be
       0.038149953 -0.028306827 0.16844516 -0.1746558
000330 cc 4e 3c 3d 2a 38 24 bd 30 a7 0b 3d 6f 07 c7 3d
       0.045973584 -0.040092625 0.03409499 0.09718215
000340 2b b8 b7 bc 7c fc 77 3d a4 50 18 be 2f e2 72 bd
       -0.022426685 0.060543522 -0.14874512 -0.059297737
000350 51 d6 9a 3d 7b 56 41 bd d7 b8 39 bd da 56 d9 bc
       0.07560409 -0.047201615 -0.045342293 -0.026530672
000360 c8 26 80 bd 6a 75 3f 3d 42 7f d6 bd 88 9a 18 3e
       -0.06257397 0.046742834 -0.10473491 0.14902699
000370 d2 34 c1 3b 63 cf 56 3e c3 72 fc 3d 10 b0 94 bc
       0.0058961893 0.20977549 0.123265766 -0.01815036
000380 78 0c 8a 3d 62 6f 96 ba 8a da 4f be 76 3d cb 3b
       0.067406595 -0.0011477286 -0.2029821 0.006202395
000390 f5 b8 a1 3d 81 48 c6 bd a9 85 e0 3d 4a 93 3e bd
       0.07896606 -0.09681798 0.10962994 -0.046527185
0003a0 be 5c 5c 3d c3 48 ca bd 18 06 46 3e f8 ee d1 3d
       0.053799383 -0.098771594 0.19338262 0.10250658
0003b0 ce 5c 1e 3e 9a 2b 88 be 2d 4c d1 bd 19 12 dc bd
       0.1546509 -0.26595765 -0.102196075 -0.10745639
0003c0 4c d6 23 3d b2 93 0b be 3c 2d 68 3c 23 d2 84 bd
       0.03999929 -0.1363056 0.014170941 -0.06485393
0003d0 58 7a 59 bc 54 76 49 bd 54 0b 34 3d 3b a7 64 be
       -0.013273798 -0.049185112 0.043956116 -0.22329418
0003e0 0a 29 5b bc f7 c4 6f 3d 34 53 e4 bc 92 ed 5b bb
       -0.013376484 0.05853745 -0.027871706 -0.003355835
0003f0 e3 3b ad bd 79 a7 dd 3b 6d eb 44 3e 55 d2 16 3e
       -0.08458688 0.006764349 0.19230433 0.14728673

lstm.bias_hh_l0 f4 [400]
000000 6b 58 66 be 94 30 b7 be f0 29 6c be 3b 62 c7 be
       -0.22494666 -0.3577925 -0.23062873 -0.3894213
000010 cf aa 44 bd 81 0b 9f be ec 1c de be fa e5 25 bf
       -0.04801446 -0.31063464 -0.4338144 -0.6480404
000020 f1 29 42 bf 6d 27 3d be 13 b9 26 bf 79 c7 88 bf
       -0.7584525 -0.18472071 -0.6512615 -1.0685874
000030 10 54 19 bf f6 0f 83 be 8b f5 40 be 6f b8 83 be
       -0.59893894 -0.25598115 -0.18843667 -0.2572665
000040 4d ba d6 be d0 f6 d8 be 4d 5e 4d be f4 7c 33 bf
       -0.4193901 -0.42375803 -0.20055504 -0.7011254
000050 32 93 33 bf 18 07 2a bf 55 dd 40 be c8 fa 10 bf
       -0.7014648 -0.66417074 -0.18834431 -0.5663266
000060 82 45 97 3d 50 21 c8 be 76 59 3b 3e 2c 55 b0 bd
       0.073863044 -0.39087915 0.18295845 -0.08609995
000070 1c 9a ab be 2d e9 e0 3d ce 50 04 3e 0d 03 b8 be
       -0.33516014 0.10981975 0.1292145 -0.35939828
000080 f9 33 06 bf 83 80 5d 3d 1d 04 05 be 3a 90 bf bd
       -0.52423054 0.054077636 -0.1298985 -0.09353681
000090 c1 00 4f bd 90 9f 04 bd f6 e6 3f be 25 0f e5 be
       -0.05053783 -0.032378733 -0.18740448 -0.44738117
0000a0 f6 1d c9 be 50 58 2b 3e 0d 28 3c 3d 55 c2 c2 be
       -0.3928067 0.16732907 0.045936633 -0.3803889
0000b0 c6 57 81 be 70 2d 91 bd 9a 11 af be e4 b1 69 be
       -0.25262278 -0.07088745 -0.34193116 -0.22821766
0000c0 5a 75 8e be c8 3f 35 bf d2 49 e6 bd 61 a4 94 be
       -0.27823907 -0.7080045 -0.11244549 -0.2903166
0000d0 40 7a 1b bf ab 7e d4 be ba 00 b9 be cd 6c 24 bf
       -0.60733414 -0.4150289 -0.36133367 -0.64228517
0000e0 5c ac 28 bf 23 7d 1c bf 64 38 c7 be 37 1b c3 be
       -0.65888 -0.61128443 -0.3891021 -0.381067
0000f0 6e 5c c0 be f7 77 d4 be 99 3a 53 bf 7e a9 ac be
       -0.37570518 -0.41497776 -0.8251129 -0.33723062
000100 b6 de 91 3d 01 35 f3 be 72 33 7b be a0 b4 bc be
       0.07122557 -0.47501376 -0.24531344 -0.36856556
000110 01 ea 0c bf eb 65 a5 be 19 c3 92 be 9f 04 9d be
       -0.5504456 -0.3230432 -0.28664473 -0.30667588
000120 90 a8 c5 be 27 5f c7 be cd a5 35 bf b6 dc c3 be
       -0.38605165 -0.38939783 -0.70956117 -0.38254327
000130 fd a7 0a bf bc 16 21 be b6 9e 52 3d 42 51 af bd
       -0.5416258 -0.15731329 0.05142089 -0.085604206
000140 ee 94 f2 be a8 b5 a0 be fe b2 df be 7f 22 28 bf
       -0.4737925 -0.31388593 -0.43691248 -0.65677637
000150 80 f5 03 bf ff a5 1d be 30 af d8 be 39 eb ba be
       -0.5154648 -0.15395354 -0.42321157 -0.36507586
000160 69 2e 7e be e4 2d 93 be 8f 94 35 bf 17 27 aa be
       -0.24822392 -0.2874595 -0.7092981 -0.33232948
000170 40 49 ce be 0c 50 ff be 69 28 04 bf b5 db 81 be
       -0.4029026 -0.49865758 -0.5162416 -0.25362936
000180 fb e7 07 bf bd fb 32 bf cb a6 11 be 90 55 96 3b
       -0.5308835 -0.6991537 -0.14223783 0.0045878366
000190 86 f1 87 be c3 ef f3 3d 89 86 73 3d aa e2 5f be
       -0.26551455 0.11910965 0.059454475 -0.21863809
0001a0 41 b4 45 be 71 fe 0f bf 88 24 79 3e a1 a3 7c be
       -0.19307043 -0.5624762 0.24330342 -0.24671794
0001b0 fa 9f 2c 3e 9a 36 0c bf 5e 27 3a be f3 64 81 bd
       0.16857901 -0.54770815 -0.1817908 -0.06318083
0001c0 18 41 24 3e ab 2d c0 3d 69 85 ae bc 88 a1 a2 3e
       0.16040456 0.093837105 -0.02130385 0.31763864
0001d0 d7 3f e5 bd 95 d6 c4 3e 96 9c 85 be 28 32 0e be
       -0.11193817 0.38444963 -0.26096028 -0.1388632
0001e0 07 ad 1f 3e 2a d9 1f 3e ed 94 7b be 9e 08 95 3e
       0.15593348 0.15610185 -0.2456853 0.29108137
0001f0 ca 3f 70 be 06 5c f1 3d b6 40 f9 be 31 a3 2b bf
       -0.23461834 0.1178513 -0.48682183 -0.67045885
000200 2f f5 8d be 46 1b b3 3d b5 db 30 bf 4a b9 20 bf
       -0.27726123 0.08745436 -0.69085246 -0.6278273
000210 3f 51 60 3d 4d 6b fc 3b 84 15 91 be 95 5f 22 bf
       0.054764982 0.007703221 -0.28336728 -0.63427097
000220 8e 58 69 be 81 a2 30 3f f1 c4 15 bf ba 9c 00 3e
       -0.22787687 0.6899796 -0.58503634 0.12559786
000230 af 55 86 be 58 6c 74 bf 84 2e 83 be dd 08 53 3d
       -0.26237246 -0.9547782 -0.25621426 0.051522125
000240 93 99 50 be 6e 0d 83 be 54 a4 e7 be 8e 6e 59 bd
       -0.20371084 -0.25596184 -0.4524256 -0.05308395
000250 7e 92 c6 3e 01 6a 39 be 73 f4 f5 be 8b f2 04 be
       0.3878364 -0.18106844 -0.48038062 -0.12983148
000260 c2 52 a8 be 29 c5 9a be 84 b2 3d bf f9 65 e7 3d
       -0.3287564 -0.30228546 -0.7410052 0.112987466
000270 1e e6 85 be a5 3f 46 be 12 05 5d 3d 5a 60 4f 3e
       -0.26152128 -0.19360216 0.053959914 0.20251599
000280 67 3a 71 be 70 9b 16 be c1 c5 16 be 50 6d b0 3b
       -0.23557435 -0.14707732 -0.14723875 0.005384125
000290 31 6d 00 bf 17 c4 da bd 57 f6 8c 3e ed b3 fe 3d
       -0.5016661 -0.106819324 0.27531692 0.12436662
0002a0 58 63 8c be 47 eb b2 3e 11 fb a4 bd 7d fd 1e bf
       -0.27419543 0.34945127 -0.080556996 -0.6210554
0002b0 22 4a 29 bf f0 40 1c 3f f7 e7 b7 be 7d dc ca 3d
       -0.6612874 0.61036587 -0.35919163 0.09905336
0002c0 eb e9 fa be 67 26 b9 be e4 5e ac be 2a 52 75 3e
       -0.4900659 -0.3616211 -0.33666146 0.23957124
0002d0 4c 18 0a bf 30 02 9a 3d 14 96 2b bd 2d da 73 be
       -0.53943324 0.075199485 -0.041891173 -0.23813696
0002e0 8a 1e 48 3e bc 62 32 bf 40 11 ca bd e3 0e 77 bc
       0.195429 -0.69681907 -0.098665714 -0.015079233
0002f0 06 79 29 bf c8 72 21 3e 57 f7 a2 bd aa ad c2 bd
       -0.6620029 0.15766442 -0.079573326 -0.0950578
000300 8d 0c 62 3e 1a 47 a9 be 23 4b 01 be b0 96 7e be
       0.220751 -0.3306206 -0.12626319 -0.2486217
000310 46 ba 6c be 70 73 01 3f 98 70 10 bf 27 f4 9f be
       -0.23117933 0.5056677 -0.56421804 -0.3124096
000320 a4 49 b9 3d c5 b7 59 bd 10 23 28 3e 65 34 d9 bd
       0.09047249 -0.053153772 0.16419625 -0.106056966
000330 b3 d5 48 bd b5 6f 2d bd 23 ba 10 bd ae fe 23 3e
       -0.049031924 -0.04234286 -0.035333764 0.16015121
000340 a9 c1 60 3d 2b 70 84 3d 27 32 71 bd 0b be 24 be
       0.05487219 0.06466707 -0.05888572 -0.1608812
000350 3e c1 d2 3d 4a d0 8c bb d6 75 95 bd 5b e2 a4 bd
       0.10290764 -0.004297291 -0.07297866 -0.080509864
000360 89 ea d6 bd 33 34 32 bd ab 41 58 3d 38 66 ae 3d
       -0.10493953 -0.043506812 0.052797 0.085155904
000370 a1 96 4c 3d 71 d0 33 3e 90 4a d6 3d 0f f6 82 bd
       0.04994834 0.17559983 0.104634404 -0.06394588
000380 eb 11 81 3d 11 4a 1f be 8f 62 d2 bd 65 ab b2 bd
       0.06302246 -0.15555598 -0.10272705 -0.08724097
000390 e5 22 9b 3d f6 5d 20 be cf f0 77 3d 1f 73 63 bc
       0.07575015 -0.15660843 0.060532387 -0.0138824275
0003a0 45 3b 3c bc 88 ec 84 be 4d 6f 2d 3e c9 26 53 bc
       -0.01148874 -0.2596171 0.16936989 -0.012887665
0003b0 c7 9f b8 3d 2f 16 06 be db 28 a6 3c c9 d4 b9 bd
       0.0901485 -0.130944 0.020283153 -0.09073789
0003c0 07 e3 25 3d 33 8a 13 be 44 5a c8 bd ea 22 82 bd
       0.040499713 -0.14408188 -0.09782842 -0.063543156
0003d0 ad b6 dc bd b8 78 ba 3c e6 8a 8e 3d b4 34 01 be
       -0.1077703 0.022762641 0.069600865 -0.12617761
0003e0 75 41 33 bc af d0 42 3e ef 36 c5 bd 25 ff bb bd
       -0.010940899 0.19024919 -0.096296184 -0.09179524
0003f0 35 c1 88 bd e8 83 e2 3c 93 0f 4b 3e 0e 1f 49 3d
       -0.06677476 0.027650788 0.1983016 0.04910188

fc_regression.weight f4 [4, 100]
000000 bb ea cc bc 8f c4 30 bc 0d 54 39 bc 72 ba b3 bb
       -0.025014272 -0.010789051 -0.011311543 -0.0054848725
000010 5a 20 f8 3a db dd 97 3b 48 c3 d3 ba ca ee 37 be
       0.001893054 0.0046346015 -0.0016156221 -0.17962185
000020 67 43 b5 bc d9 39 6f 3d e5 03 0c 3d 01 74 84 be
       -0.022126867 0.058404777 0.0341834 -0.25869754
000030 c3 f9 d2 3c 8e 46 90 3c 4c 51 10 3c 63 36 8f bb
       0.025753861 0.017611768 0.008808445 -0.004370497
000040 3f 0a 24 3d 49 e7 dc 39 f5 bb 07 39 ff 04 b4 3b
       0.040048834 0.0004213399 0.00012944623 0.0054937596
000050 bf aa ed 3d a9 27 06 3c 95 cf 85 3c 61 be 7a 3c
       0.11604833 0.008188167 0.016334334 0.015304179
000060 a5 36 e8 38 26 cd 08 bc cf d5 91 bc 28 7b f0 b9
       0.000110728004 -0.008349692 -0.017802147 -0.00045868126
000070 91 78 5b 3c 1d 9e 21 3c 40 c3 aa b7 11 4a 1e 3d
       0.0133954445 0.009864357 -2.03565e-05 0.038644854
000080 c6 a7 e3 ba a0 c8 27 3a c9 36 87 bb 06 99 09 bd
       -0.0017368726 0.000640044 -0.004126404 -0.0335932
000090 48 11 46 3c 9a 8e ba 3b 92 a1 45 bc e9 1c 0f ba
       0.012089081 0.005693269 -0.012062447 -0.0005459325
0000a0 6a 83 c4 3c fb b9 28 ba a6 31 79 bc 01 dd a9 3c
       0.023988444 -0.00064364047 -0.015209591 0.020735266
0000b0 20 54 2f 3c 8d e0 3d 3c 6f 8a 13 3d 59 64 8c bc
       0.010701209 0.011589182 0.036020692 -0.017137693
0000c0 95 13 5d 3c 6f 17 9a 3c a8 4a 33 3c 3e 0f 21 3d
       0.013493438 0.018810002 0.010943092 0.039321177
0000d0 67 1c cf 3b 0e c9 a5 3b 2b b4 09 be 74 d3 e5 bc
       0.0063205245 0.005059368 -0.13447635 -0.02805493
0000e0 a8 2e 8b bc 69 37 31 3e 61 68 3d ba 42 88 66 bd
       -0.01699002 0.17306294 -0.00072253315 -0.05628229
0000f0 4e 36 42 bd 12 4b 83 bc 23 d5 46 be 69 38 19 3d
       -0.04741507 -0.016027007 -0.19417243 0.037407313
000100 19 1c 1a 3c 60 a2 0c 3c d4 44 0b 3c 76 e6 b3 bb
       0.009406113 0.008583635 0.008500297 -0.0054901196
000110 09 50 61 3d 21 a0 4f bb 50 19 8d 3b 1a ee 57 3b
       0.055007968 -0.0031681138 0.004305996 0.0032948316
000120 a5 ce 06 bd a1 38 1b 3d 49 95 fd bd bb 64 b1 bc
       -0.032911915 0.037895802 -0.123819895 -0.021654477
000130 96 bd 72 bc c4 5c b0 3c 9d 8b 03 3c bc a5 6f bc
       -0.014815709 0.02152861 0.008028892 -0.0146269165
000140 94 1a 1e 3e 5b 52 28 3d 4a 26 72 3d 3e 4c 76 3b
       0.15439826 0.041094165 0.059118547 0.0037582065
000150 9f 0d 7f bc f3 f2 35 3c 46 62 4c bc d7 7e d0 3b
       -0.015567212 0.011105287 -0.012474602 0.0063627767
000160 7d 62 d0 bb 2f 73 81 3c 1f a9 b0 3c 4c 44 29 3c
       -0.006359397 0.015801994 0.021565018 0.010331225
000170 a7 22 96 bc cb 25 6f 3d 79 ac 2d 3d 24 03 b4 bc
       -0.01832707 0.05838565 0.04240081 -0.021974154
000180 bf e1 ab bb 21 aa 92 bc 39 7f 93 3b 88 04 a5 ba
       -0.005245417 -0.01790339 0.00450125 -0.0012589851
000190 9e db 93 3c ab a5 55 3d 1c 79 35 bc 74 c6 75 bd
       0.018049058 0.052159946 -0.011076238 -0.060003713
0001a0 58 22 94 3c cd 04 c7 3c 48 e3 9c 3c 89 d8 e5 bc
       0.018082783 0.024294281 0.019151345 -0.028057354
0001b0 7c 02 98 3d 35 db 84 3c c0 fa 49 3c 1a 60 48 bd
       0.07422349 0.016217807 0.01232785 -0.048919775
0001c0 76 2f e0 bc 64 42 8a bc d5 e7 be bd 1a 0c eb 3d
       -0.027366381 -0.01687736 -0.09321562 0.114769176
0001d0 b0 d0 59 3b cc 12 1d 3c ac 99 6d bc 8e 64 9b 3d
       0.003323596 0.009587001 -0.01450197 0.07587539
0001e0 ad 16 06 bd 1d f2 12 3d 2a 49 b4 3d 9f ac 50 bd
       -0.03273647 0.03587543 0.088030174 -0.050945874
0001f0 08 a3 e4 bc 12 d6 6c 3d 8d 1e 8d 3d 39 b2 7b 3c
       -0.02790977 0.05782134 0.06890593 0.015362316
000200 61 8a e9 3c 4c 13 85 bc b9 eb b9 bc d2 d8 71 bc
       0.028508367 -0.016244553 -0.02269541 -0.014761167
000210 5f c1 4d 3b e8 d7 88 3a c4 fd 00 be 13 fa 4c bb
       0.0031395776 0.0010440322 -0.12596804 -0.0031276986
000220 73 8b 1e 3d 9e 8a ab ba 76 1a 96 bd 54 ee 86 3c
       0.038707208 -0.0013087576 -0.07329266 0.016471066
000230 63 10 70 3c 64 bd 51 3c cd a3 9b 3c cc 2c ae b9
       0.014652344 0.012801502 0.018999005 -0.00033221242
000240 c3 97 9f 3d df 94 11 39 6a 53 33 3e 24 ba c9 bc
       0.07792618 0.00013883736 0.17512289 -0.024624892
000250 dc e4 16 bc 51 85 10 bc 58 bd 0c 3d a4 ca c2 3c
       -0.009209838 -0.008820848 0.03436026 0.023778267
000260 5b 18 e6 bc 42 4a 05 bc 1b ad 70 bc f4 d1 39 bb
       -0.028087785 -0.00813538 -0.014689709 -0.0028353902
000270 b3 a2 03 bd f3 bd dc 3c dc b3 3a 3c e4 3b a3 3c
       -0.032137584 0.026946044 0.011395421 0.019926019
000280 73 f0 37 bc e8 86 08 3d fc 61 9e 3d cd 27 46 3d
       -0.011226761 0.03333178 0.07733533 0.0483778
000290 ae 26 d5 bc f2 fe 38 bb 90 f4 f1 3c 8a 2c 21 3d
       -0.02601942 -0.002822813 0.029535562 0.039349116
0002a0 6e 3c 74 ba 6c b1 04 3e c5 13 56 bd 5d 3f 08 3b
       -0.0009316866 0.12958306 -0.052264947 0.002078972
0002b0 02 ff 38 bc 1e 7b d3 bc 1b 18 d3 3c 93 f2 17 3d
       -0.011291267 -0.025815543 0.02576833 0.03709657
0002c0 89 93 38 3d 65 2c 33 bc b5 2b c5 bc 10 00 4a 3d
       0.045062575 -0.010935877 -0.024068693 0.049316466
0002d0 cd 74 65 3b cd 3d 66 bc 7b d4 a4 3c f2 d6 9e bc
       0.0035012246 -0.01405282 0.02012085 -0.019389603
0002e0 67 c0 44 3c 8d 52 86 bb 6b d1 8c bd 3f 47 d4 39
       0.012008763 -0.0040991963 -0.06875881 0.00040488873
0002f0 76 46 eb bd fa ac 35 3a 29 9c 9c 3d 2e bc 96 3c
       -0.11488049 0.00069303776 0.07646973 0.018400278
000300 37 83 c7 bc 96 94 92 bc ee c0 e9 bb bc fc 72 3c
       -0.02435456 -0.017893117 -0.0071335947 0.014830764
000310 61 e8 fe 3b 19 ce 8f 3d 0f 38 be bb 99 54 78 bc
       0.0077791666 0.07021732 -0.0058050225 -0.015156888
000320 1c ed 82 bc 82 68 ec bb cf d1 dc bb 0d 7d b4 bb
       -0.015982203 -0.0072146067 -0.0067388783 -0.0055080713
000330 86 bd af ba 1d 7b 25 bb 0e a4 51 bb 00 ad dc bd
       -0.0013407923 -0.0025250383 -0.0031988653 -0.10775185
000340 0a 11 da bb d6 03 c4 3c ad 22 0b 3d 2d 87 97 3c
       -0.0066548632 0.02392761 0.033968616 0.018497074
000350 4c c5 55 3c 92 9d 07 3c 02 2c 6e 39 67 e4 da bb
       0.0130475275 0.008277314 0.00022713843 -0.0066800597
000360 a1 7e d0 3b 81 58 86 3a fc 5f 99 bb c5 0f ff 3b
       0.0063627516 0.0010249765 -0.0046806317 0.0077838623
000370 2f 27 7f 3d f7 54 97 3b b1 c1 52 3c 8d 3e 11 3c
       0.062293228 0.004618283 0.012863562 0.008865011
000380 65 d1 bc 3b 55 f4 29 bb 0b 76 e1 bb 05 24 e2 ba
       0.0057622665 -0.0025932987 -0.006880527 -0.0017253166
000390 1d 96 07 3c c4 38 c8 3b b6 53 1b 3b 27 54 e0 3c
       0.008275536 0.0061102826 0.0023701019 0.027383877
0003a0 a9 33 f1 3b a6 cc 86 3b 75 e0 1e bb df dd 7b bc
       0.0073608947 0.0041137515 -0.0024242674 -0.015372722
0003b0 1e 0e d4 3a 7d aa 30 3b 70 dc ac bb b6 87 2a 3b
       0.0016178524 0.0026957088 -0.0052753016 0.0026020831
0003c0 88 ec 44 3c f3 af 37 bb 15 48 f8 ba 1e 98 6a 3c
       0.012019284 -0.0028028458 -0.001894238 0.014318494
0003d0 95 2f 7f 3b cb f8 39 3b ff 8c 00 bb d6 a2 bb ba
       0.0038938273 0.0028377052 -0.001961529 -0.0014315497
0003e0 eb 80 da 3b 2f a1 46 3c c4 02 c5 3b 4d 26 33 3c
       0.0066682003 0.01212339 0.0060122926 0.010934425
0003f0 a5 7c 04 3a 3a 54 eb 3a d1 4b 51 bd da bb 0c bd
       0.0005053974 0.0017954179 -0.051097695 -0.034358837

fc_regression.bias f4 [4]
000000 0f f2 48 3c 63 35 87 3d b3 23 04 3c 35 00 89 3d
       0.0122647425 0.066019796 0.008065152 0.066894926
